# use the same data augmentation scheme as the FlowNet2 paper
layer {
  name: "CustomDate1"
  type: "CustomData"
  top: "img0"
  top: "img1"
  top: "flow_gt"
  top: "aux"
  include {
    phase: TRAIN
  }
  data_param {
    source: "/data2/FlyingChairs_release_lmdb" # PLEASE MODIFY TO YOUR LOCAL DIRECTORY
    batch_size: 8
    backend: LMDB
    preselection_file: "/data/szf/FlyingChairs_lmdb/train_val_split.txt" # PLEASE MODIFY TO YOUR LOCAL DIRECTORY
    preselection_label: 1
    rand_permute: true
    rand_permute_seed: 77
    slice_point: 3
    slice_point: 6
    slice_point: 8
    encoding: UINT8
    encoding: UINT8
    encoding: UINT16FLOW
    encoding: BOOL1
    verbose: true
  }
}
layer {
  name: "CustomData2"
  type: "CustomData"
  top: "img0"
  top: "img1"
  top: "flow_gt"
  top: "aux"
  include {
    phase: TEST
  }
  data_param {
    source: "/data2/FlyingChairs_release_lmdb" # PLEASE MODIFY TO YOUR LOCAL DIRECTORY
    batch_size: 8
    backend: LMDB
    preselection_file: "/data/szf/FlyingChairs_lmdb/train_val_split.txt" # PLEASE MODIFY TO YOUR LOCAL DIRECTORY
    preselection_label: 2
    rand_permute: true
    rand_permute_seed: 77
    slice_point: 3
    slice_point: 6
    slice_point: 8
    encoding: UINT8
    encoding: UINT8
    encoding: UINT16FLOW
    encoding: BOOL1
    verbose: true
  }
}
layer {
  name: "img0_subtract"
  type: "Eltwise"
  bottom: "img0"
  top: "img0_subtract"
  eltwise_param {
    operation: SUM
    coeff: 0.00392156862745
  }
}
layer {
  name: "img1_subtract"
  type: "Eltwise"
  bottom: "img1"
  top: "img1_subtract"
  eltwise_param {
    operation: SUM
    coeff: 0.00392156862745
  }
}
layer {
  name: "img0_aug"
  type: "DataAugmentation"
  bottom: "img0_subtract"
  top: "img0_aug"
  top: "img0_aug_params"
  propagate_down: false
  augmentation_param {
    max_multiplier: 1
    augment_during_test: false
    recompute_mean: 1000
    mean_per_pixel: false
    translate {
      rand_type: "uniform_bernoulli"
      exp: false
      mean: 0
      spread: 0.4
      prob: 1.0
    }
    rotate {
      rand_type: "uniform_bernoulli"
      exp: false
      mean: 0
      spread: 0.4
      prob: 1.0
    }
    zoom {
      rand_type: "uniform_bernoulli"
      exp: true
      mean: 0.2
      spread: 0.4
      prob: 1.0
    }
    squeeze {
      rand_type: "uniform_bernoulli"
      exp: true
      mean: 0
      spread: 0.3
      prob: 1.0
    }
    lmult_pow {
      rand_type: "uniform_bernoulli"
      exp: true
      mean: -0.2
      spread: 0.4
      prob: 1.0
    }
    lmult_mult {
      rand_type: "uniform_bernoulli"
      exp: true
      mean: 0.0
      spread: 0.4
      prob: 1.0
    }
    lmult_add {
      rand_type: "uniform_bernoulli"
      exp: false
      mean: 0
      spread: 0.03
      prob: 1.0
    }
    sat_pow {
      rand_type: "uniform_bernoulli"
      exp: true
      mean: 0
      spread: 0.4
      prob: 1.0
    }
    sat_mult {
      rand_type: "uniform_bernoulli"
      exp: true
      mean: -0.3
      spread: 0.5
      prob: 1.0
    }
    sat_add {
      rand_type: "uniform_bernoulli"
      exp: false
      mean: 0
      spread: 0.03
      prob: 1.0
    }
    col_pow {
      rand_type: "gaussian_bernoulli"
      exp: true
      mean: 0
      spread: 0.4
      prob: 1.0
    }
    col_mult {
      rand_type: "gaussian_bernoulli"
      exp: true
      mean: 0
      spread: 0.2
      prob: 1.0
    }
    col_add {
      rand_type: "gaussian_bernoulli"
      exp: false
      mean: 0
      spread: 0.02
      prob: 1.0
    }
    ladd_pow {
      rand_type: "gaussian_bernoulli"
      exp: true
      mean: 0
      spread: 0.4
      prob: 1.0
    }
    ladd_mult {
      rand_type: "gaussian_bernoulli"
      exp: true
      mean: 0.0
      spread: 0.4
      prob: 1.0
    }
    ladd_add {
      rand_type: "gaussian_bernoulli"
      exp: false
      mean: 0
      spread: 0.04
      prob: 1.0
    }
    col_rotate {
      rand_type: "uniform_bernoulli"
      exp: false
      mean: 0
      spread: 1
      prob: 1.0
    }
    crop_width: 448
    crop_height: 320
    chromatic_eigvec: 0.51
    chromatic_eigvec: 0.56
    chromatic_eigvec: 0.65
    chromatic_eigvec: 0.79
    chromatic_eigvec: 0.01
    chromatic_eigvec: -0.62
    chromatic_eigvec: 0.35
    chromatic_eigvec: -0.83
    chromatic_eigvec: 0.44
    noise {
      rand_type: "uniform_bernoulli"
      exp: false
      mean: 0.03
      spread: 0.03
      prob: 1.0
    }
  }
}
layer {
  name: "GenerateAugmentationParameters1"
  type: "GenerateAugmentationParameters"
  bottom: "img0_aug_params"
  bottom: "img0_subtract"
  bottom: "img0_aug"
  top: "GenerateAugmentationParameters1"
  coeff_schedule_param {
    half_life: 50000
    initial_coeff: 0.5
    final_coeff: 1
  }
  augmentation_param {
    augment_during_test: false
    translate {
      rand_type: "gaussian_bernoulli"
      exp: false
      mean: 0
      spread: 0.03
      prob: 1.0
    }
    rotate {
      rand_type: "gaussian_bernoulli"
      exp: false
      mean: 0
      spread: 0.03
      prob: 1.0
    }
    zoom {
      rand_type: "gaussian_bernoulli"
      exp: true
      mean: 0
      spread: 0.03
      prob: 1.0
    }
    gamma {
      rand_type: "gaussian_bernoulli"
      exp: true
      mean: 0
      spread: 0.02
      prob: 1.0
    }
    brightness {
      rand_type: "gaussian_bernoulli"
      exp: false
      mean: 0
      spread: 0.02
      prob: 1.0
    }
    contrast {
      rand_type: "gaussian_bernoulli"
      exp: true
      mean: 0
      spread: 0.02
      prob: 1.0
    }
    color {
      rand_type: "gaussian_bernoulli"
      exp: true
      mean: 0
      spread: 0.02
      prob: 1.0
    }
  }
}
layer {
  name: "img1_aug"
  type: "DataAugmentation"
  bottom: "img1_subtract"
  bottom: "GenerateAugmentationParameters1"
  top: "img1_aug"
  propagate_down: false
  propagate_down: false
  augmentation_param {
    max_multiplier: 1
    augment_during_test: false
    recompute_mean: 1000
    mean_per_pixel: false
    crop_width: 448
    crop_height: 320
    chromatic_eigvec: 0.51
    chromatic_eigvec: 0.56
    chromatic_eigvec: 0.65
    chromatic_eigvec: 0.79
    chromatic_eigvec: 0.01
    chromatic_eigvec: -0.62
    chromatic_eigvec: 0.35
    chromatic_eigvec: -0.83
    chromatic_eigvec: 0.44
  }
}
layer {
  name: "flow_gt_aug"
  type: "FlowAugmentation"
  bottom: "flow_gt"
  bottom: "img0_aug_params"
  bottom: "GenerateAugmentationParameters1"
  top: "flow_gt_aug"
  augmentation_param {
    crop_width: 448
    crop_height: 320
  }
}
layer {
  name: "scaled_flow_gt"
  type: "Eltwise"
  bottom: "flow_gt_aug"
  top: "scaled_flow_gt"
  eltwise_param {
    operation: SUM
    coeff: 0.05
  }
}
layer {
  name: "conv0_1_a"
  type: "Convolution"
  bottom: "img0_aug"
  bottom: "img1_aug"
  top: "conv0_1_a"
  top: "conv1_1_a"
  param {
    lr_mult: 1
    decay_mult: 1
  }
  param {
    lr_mult: 1
    decay_mult: 0
  }
  convolution_param {
    num_output: 16
    pad: 1
    kernel_size: 3
    stride: 2
    weight_filler {
      type: "msra"
    }
    bias_filler {
      type: "constant"
    }
    engine: CUDNN
  }
}
layer {
  name: "Relu0_1_a"
  type: "ReLU"
  bottom: "conv0_1_a"
  top: "conv0_1_a"
  relu_param {
    negative_slope: 0.1
  }
}
layer {
  name: "Relu1_1_a"
  type: "ReLU"
  bottom: "conv1_1_a"
  top: "conv1_1_a"
  relu_param {
    negative_slope: 0.1
  }
}
layer {
  name: "conv0_1_aa"
  type: "Convolution"
  bottom: "conv0_1_a"
  bottom: "conv1_1_a"
  top: "conv0_1_aa"
  top: "conv1_1_aa"
  param {
    lr_mult: 1
    decay_mult: 1
  }
  param {
    lr_mult: 1
    decay_mult: 0
  }
  convolution_param {
    num_output: 16
    pad: 1
    kernel_size: 3
    stride: 1
    weight_filler {
      type: "msra"
    }
    bias_filler {
      type: "constant"
    }
    engine: CUDNN
  }
}
layer {
  name: "Relu0_1_aa"
  type: "ReLU"
  bottom: "conv0_1_aa"
  top: "conv0_1_aa"
  relu_param {
    negative_slope: 0.1
  }
}
layer {
  name: "Relu1_1_aa"
  type: "ReLU"
  bottom: "conv1_1_aa"
  top: "conv1_1_aa"
  relu_param {
    negative_slope: 0.1
  }
}
layer {
  name: "conv0_1_b"
  type: "Convolution"
  bottom: "conv0_1_aa"
  bottom: "conv1_1_aa"
  top: "conv0_1_b"
  top: "conv1_1_b"
  param {
    lr_mult: 1
    decay_mult: 1
  }
  param {
    lr_mult: 1
    decay_mult: 0
  }
  convolution_param {
    num_output: 16
    pad: 1
    kernel_size: 3
    stride: 1
    weight_filler {
      type: "msra"
    }
    bias_filler {
      type: "constant"
    }
    engine: CUDNN
  }
}
layer {
  name: "Relu0_1_b"
  type: "ReLU"
  bottom: "conv0_1_b"
  top: "conv0_1_b"
  relu_param {
    negative_slope: 0.1
  }
}
layer {
  name: "Relu1_1_b"
  type: "ReLU"
  bottom: "conv1_1_b"
  top: "conv1_1_b"
  relu_param {
    negative_slope: 0.1
  }
}
layer {
  name: "conv0_2_a"
  type: "Convolution"
  bottom: "conv0_1_b"
  bottom: "conv1_1_b"
  top: "conv0_2_a"
  top: "conv1_2_a"
  param {
    lr_mult: 1
    decay_mult: 1
  }
  param {
    lr_mult: 1
    decay_mult: 0
  }
  convolution_param {
    num_output: 32
    pad: 1
    kernel_size: 3
    stride: 2
    weight_filler {
      type: "msra"
    }
    bias_filler {
      type: "constant"
    }
    engine: CUDNN
  }
}
layer {
  name: "Relu0_2_a"
  type: "ReLU"
  bottom: "conv0_2_a"
  top: "conv0_2_a"
  relu_param {
    negative_slope: 0.1
  }
}
layer {
  name: "Relu1_2_a"
  type: "ReLU"
  bottom: "conv1_2_a"
  top: "conv1_2_a"
  relu_param {
    negative_slope: 0.1
  }
}
layer {
  name: "conv0_2_aa"
  type: "Convolution"
  bottom: "conv0_2_a"
  bottom: "conv1_2_a"
  top: "conv0_2_aa"
  top: "conv1_2_aa"
  param {
    lr_mult: 1
    decay_mult: 1
  }
  param {
    lr_mult: 1
    decay_mult: 0
  }
  convolution_param {
    num_output: 32
    pad: 1
    kernel_size: 3
    stride: 1
    weight_filler {
      type: "msra"
    }
    bias_filler {
      type: "constant"
    }
    engine: CUDNN
  }
}
layer {
  name: "Relu0_2_aa"
  type: "ReLU"
  bottom: "conv0_2_aa"
  top: "conv0_2_aa"
  relu_param {
    negative_slope: 0.1
  }
}
layer {
  name: "Relu1_2_aa"
  type: "ReLU"
  bottom: "conv1_2_aa"
  top: "conv1_2_aa"
  relu_param {
    negative_slope: 0.1
  }
}
layer {
  name: "conv0_2_b"
  type: "Convolution"
  bottom: "conv0_2_aa"
  bottom: "conv1_2_aa"
  top: "conv0_2_b"
  top: "conv1_2_b"
  param {
    lr_mult: 1
    decay_mult: 1
  }
  param {
    lr_mult: 1
    decay_mult: 0
  }
  convolution_param {
    num_output: 32
    pad: 1
    kernel_size: 3
    stride: 1
    weight_filler {
      type: "msra"
    }
    bias_filler {
      type: "constant"
    }
    engine: CUDNN
  }
}
layer {
  name: "Relu0_2_b"
  type: "ReLU"
  bottom: "conv0_2_b"
  top: "conv0_2_b"
  relu_param {
    negative_slope: 0.1
  }
}
layer {
  name: "Relu1_2_b"
  type: "ReLU"
  bottom: "conv1_2_b"
  top: "conv1_2_b"
  relu_param {
    negative_slope: 0.1
  }
}
layer {
  name: "conv0_3_a"
  type: "Convolution"
  bottom: "conv0_2_b"
  bottom: "conv1_2_b"
  top: "conv0_3_a"
  top: "conv1_3_a"
  param {
    lr_mult: 1
    decay_mult: 1
  }
  param {
    lr_mult: 1
    decay_mult: 0
  }
  convolution_param {
    num_output: 64
    pad: 1
    kernel_size: 3
    stride: 2
    weight_filler {
      type: "msra"
    }
    bias_filler {
      type: "constant"
    }
    engine: CUDNN
  }
}
layer {
  name: "Relu0_3_a"
  type: "ReLU"
  bottom: "conv0_3_a"
  top: "conv0_3_a"
  relu_param {
    negative_slope: 0.1
  }
}
layer {
  name: "Relu1_3_a"
  type: "ReLU"
  bottom: "conv1_3_a"
  top: "conv1_3_a"
  relu_param {
    negative_slope: 0.1
  }
}
layer {
  name: "conv0_3_aa"
  type: "Convolution"
  bottom: "conv0_3_a"
  bottom: "conv1_3_a"
  top: "conv0_3_aa"
  top: "conv1_3_aa"
  param {
    lr_mult: 1
    decay_mult: 1
  }
  param {
    lr_mult: 1
    decay_mult: 0
  }
  convolution_param {
    num_output: 64
    pad: 1
    kernel_size: 3
    stride: 1
    weight_filler {
      type: "msra"
    }
    bias_filler {
      type: "constant"
    }
    engine: CUDNN
  }
}
layer {
  name: "Relu0_3_aa"
  type: "ReLU"
  bottom: "conv0_3_aa"
  top: "conv0_3_aa"
  relu_param {
    negative_slope: 0.1
  }
}
layer {
  name: "Relu1_3_aa"
  type: "ReLU"
  bottom: "conv1_3_aa"
  top: "conv1_3_aa"
  relu_param {
    negative_slope: 0.1
  }
}
layer {
  name: "conv0_3_b"
  type: "Convolution"
  bottom: "conv0_3_aa"
  bottom: "conv1_3_aa"
  top: "conv0_3_b"
  top: "conv1_3_b"
  param {
    lr_mult: 1
    decay_mult: 1
  }
  param {
    lr_mult: 1
    decay_mult: 0
  }
  convolution_param {
    num_output: 64
    pad: 1
    kernel_size: 3
    stride: 1
    weight_filler {
      type: "msra"
    }
    bias_filler {
      type: "constant"
    }
    engine: CUDNN
  }
}
layer {
  name: "Relu0_3_b"
  type: "ReLU"
  bottom: "conv0_3_b"
  top: "conv0_3_b"
  relu_param {
    negative_slope: 0.1
  }
}
layer {
  name: "Relu1_3_b"
  type: "ReLU"
  bottom: "conv1_3_b"
  top: "conv1_3_b"
  relu_param {
    negative_slope: 0.1
  }
}
layer {
  name: "conv0_4_a"
  type: "Convolution"
  bottom: "conv0_3_b"
  bottom: "conv1_3_b"
  top: "conv0_4_a"
  top: "conv1_4_a"
  param {
    lr_mult: 1
    decay_mult: 1
  }
  param {
    lr_mult: 1
    decay_mult: 0
  }
  convolution_param {
    num_output: 96
    pad: 1
    kernel_size: 3
    stride: 2
    weight_filler {
      type: "msra"
    }
    bias_filler {
      type: "constant"
    }
    engine: CUDNN
  }
}
layer {
  name: "Relu0_4_a"
  type: "ReLU"
  bottom: "conv0_4_a"
  top: "conv0_4_a"
  relu_param {
    negative_slope: 0.1
  }
}
layer {
  name: "Relu1_4_a"
  type: "ReLU"
  bottom: "conv1_4_a"
  top: "conv1_4_a"
  relu_param {
    negative_slope: 0.1
  }
}
layer {
  name: "conv0_4_aa"
  type: "Convolution"
  bottom: "conv0_4_a"
  bottom: "conv1_4_a"
  top: "conv0_4_aa"
  top: "conv1_4_aa"
  param {
    lr_mult: 1
    decay_mult: 1
  }
  param {
    lr_mult: 1
    decay_mult: 0
  }
  convolution_param {
    num_output: 96
    pad: 1
    kernel_size: 3
    stride: 1
    weight_filler {
      type: "msra"
    }
    bias_filler {
      type: "constant"
    }
    engine: CUDNN
  }
}
layer {
  name: "Relu0_4_aa"
  type: "ReLU"
  bottom: "conv0_4_aa"
  top: "conv0_4_aa"
  relu_param {
    negative_slope: 0.1
  }
}
layer {
  name: "Relu1_4_aa"
  type: "ReLU"
  bottom: "conv1_4_aa"
  top: "conv1_4_aa"
  relu_param {
    negative_slope: 0.1
  }
}
layer {
  name: "conv0_4_b"
  type: "Convolution"
  bottom: "conv0_4_aa"
  bottom: "conv1_4_aa"
  top: "conv0_4_b"
  top: "conv1_4_b"
  param {
    lr_mult: 1
    decay_mult: 1
  }
  param {
    lr_mult: 1
    decay_mult: 0
  }
  convolution_param {
    num_output: 96
    pad: 1
    kernel_size: 3
    stride: 1
    weight_filler {
      type: "msra"
    }
    bias_filler {
      type: "constant"
    }
    engine: CUDNN
  }
}
layer {
  name: "Relu0_4_b"
  type: "ReLU"
  bottom: "conv0_4_b"
  top: "conv0_4_b"
  relu_param {
    negative_slope: 0.1
  }
}
layer {
  name: "Relu1_4_b"
  type: "ReLU"
  bottom: "conv1_4_b"
  top: "conv1_4_b"
  relu_param {
    negative_slope: 0.1
  }
}
layer {
  name: "conv0_5_a"
  type: "Convolution"
  bottom: "conv0_4_b"
  bottom: "conv1_4_b"
  top: "conv0_5_a"
  top: "conv1_5_a"
  param {
    lr_mult: 1
    decay_mult: 1
  }
  param {
    lr_mult: 1
    decay_mult: 0
  }
  convolution_param {
    num_output: 128
    pad: 1
    kernel_size: 3
    stride: 2
    weight_filler {
      type: "msra"
    }
    bias_filler {
      type: "constant"
    }
    engine: CUDNN
  }
}
layer {
  name: "Relu0_5_a"
  type: "ReLU"
  bottom: "conv0_5_a"
  top: "conv0_5_a"
  relu_param {
    negative_slope: 0.1
  }
}
layer {
  name: "Relu1_5_a"
  type: "ReLU"
  bottom: "conv1_5_a"
  top: "conv1_5_a"
  relu_param {
    negative_slope: 0.1
  }
}
layer {
  name: "conv0_5_aa"
  type: "Convolution"
  bottom: "conv0_5_a"
  bottom: "conv1_5_a"
  top: "conv0_5_aa"
  top: "conv1_5_aa"
  param {
    lr_mult: 1
    decay_mult: 1
  }
  param {
    lr_mult: 1
    decay_mult: 0
  }
  convolution_param {
    num_output: 128
    pad: 1
    kernel_size: 3
    stride: 1
    weight_filler {
      type: "msra"
    }
    bias_filler {
      type: "constant"
    }
    engine: CUDNN
  }
}
layer {
  name: "Relu0_5_aa"
  type: "ReLU"
  bottom: "conv0_5_aa"
  top: "conv0_5_aa"
  relu_param {
    negative_slope: 0.1
  }
}
layer {
  name: "Relu1_5_aa"
  type: "ReLU"
  bottom: "conv1_5_aa"
  top: "conv1_5_aa"
  relu_param {
    negative_slope: 0.1
  }
}
layer {
  name: "conv0_5_b"
  type: "Convolution"
  bottom: "conv0_5_aa"
  bottom: "conv1_5_aa"
  top: "conv0_5_b"
  top: "conv1_5_b"
  param {
    lr_mult: 1
    decay_mult: 1
  }
  param {
    lr_mult: 1
    decay_mult: 0
  }
  convolution_param {
    num_output: 128
    pad: 1
    kernel_size: 3
    stride: 1
    weight_filler {
      type: "msra"
    }
    bias_filler {
      type: "constant"
    }
    engine: CUDNN
  }
}
layer {
  name: "Relu0_5_b"
  type: "ReLU"
  bottom: "conv0_5_b"
  top: "conv0_5_b"
  relu_param {
    negative_slope: 0.1
  }
}
layer {
  name: "Relu1_5_b"
  type: "ReLU"
  bottom: "conv1_5_b"
  top: "conv1_5_b"
  relu_param {
    negative_slope: 0.1
  }
}

##### G1_1 #####
layer {
  name: "corr_1_1L"
  type: "Correlation"
  bottom: "conv0_5_b"
  bottom: "conv1_5_b"
  top: "corr_1_1L"
  correlation_param {
    pad: 4
    kernel_size: 1
    max_displacement: 4
    stride_1: 1
    stride_2: 1
  }
}
layer {
  name: "corr_1_1L_relu"
  type: "ReLU"
  bottom: "corr_1_1L"
  top: "corr_1_1L"
  relu_param {
    negative_slope: 0.1
  }
}
layer {
  name: "corr_1_1L_concat"
  type: "Concat"
  bottom: "corr_1_1L"
  bottom: "conv0_5_b"
  top: "corr_1_1L_concat"
  concat_param {
    axis: 1
  }
}

layer {
  name: "conv1_1_1L"
  type: "Convolution"
  bottom: "corr_1_1L_concat"
  top: "conv1_1_1L"
  param {
    lr_mult: 1
    decay_mult: 1
  }
  param {
    lr_mult: 1
    decay_mult: 0
  }
  convolution_param {
    num_output: 96
    pad: 1
    kernel_size: 3
    stride: 1
    weight_filler {
      type: "msra"
    }
    bias_filler {
      type: "constant"
    }
    engine: CUDNN
  }
}


layer {
  name: "relu1_1_1L"
  type: "ReLU"
  bottom: "conv1_1_1L"
  top: "conv1_1_1L"
  relu_param{
  	negative_slope: 0.1
  }
}


layer {
  name: "incept_1_1L_1b_1"
  type: "Convolution"
  bottom: "conv1_1_1L"
  top: "incept_1_1L_1b_1"
  param {
    lr_mult: 1
    decay_mult: 1
  }
  param {
    lr_mult: 1
    decay_mult: 0
  }
  convolution_param {
    num_output: 36
    pad: 0
    kernel_size: 1
    stride: 1
    weight_filler {
      type: "msra"
    }
    bias_filler {
      type: "constant"
    }
    engine: CUDNN
  }
}

layer {
  name: "incept_1_1L_1b_relu1"
  type: "ReLU"
  bottom: "incept_1_1L_1b_1"
  top: "incept_1_1L_1b_1"
  relu_param{
  	negative_slope: 0.1
  }
}

layer {
  name: "incept_1_1L_2b_1"
  type: "Convolution"
  bottom: "conv1_1_1L"
  top: "incept_1_1L_2b_1"
  param {
    lr_mult: 1
    decay_mult: 1
  }
  param {
    lr_mult: 1
    decay_mult: 0
  }
  convolution_param {
    num_output: 48
    pad: 0
    kernel_size: 1
    stride: 1
    weight_filler {
      type: "msra"
    }
    bias_filler {
      type: "constant"
    }
    engine: CUDNN
  }
}

layer {
  name: "incept_1_1L_2b_relu1"
  type: "ReLU"
  bottom: "incept_1_1L_2b_1"
  top: "incept_1_1L_2b_1"
  relu_param{
  	negative_slope: 0.1
  }
}


layer {
  name: "incept_1_1L_2b_2"
  type: "Convolution"
  bottom: "incept_1_1L_2b_1"
  top: "incept_1_1L_2b_2"
  param {
    lr_mult: 1
    decay_mult: 1
  }
  param {
    lr_mult: 1
    decay_mult: 0
  }
  convolution_param {
    num_output: 64
    pad: 1
    kernel_size: 3
    stride: 1
    weight_filler {
      type: "msra"
    }
    bias_filler {
      type: "constant"
    }
    engine: CUDNN
  }
}

layer {
  name: "incept_1_1L_2b_relu2"
  type: "ReLU"
  bottom: "incept_1_1L_2b_2"
  top: "incept_1_1L_2b_2"
  relu_param{
  	negative_slope: 0.1
  }
}



layer {
  name: "incept_1_1L_3b_1"
  type: "Convolution"
  bottom: "conv1_1_1L"
  top: "incept_1_1L_3b_1"
  param {
    lr_mult: 1
    decay_mult: 1
  }
  param {
    lr_mult: 1
    decay_mult: 0
  }
  convolution_param {
    num_output: 16
    pad: 0
    kernel_size: 1
    stride: 1
    weight_filler {
      type: "msra"
    }
    bias_filler {
      type: "constant"
    }
    engine: CUDNN
  }
}

layer {
  name: "incept_1_1L_3b_relu1"
  type: "ReLU"
  bottom: "incept_1_1L_3b_1"
  top: "incept_1_1L_3b_1"
  relu_param{
  	negative_slope: 0.1
  }
}


layer {
  name: "incept_1_1L_3b_2"
  type: "Convolution"
  bottom: "incept_1_1L_3b_1"
  top: "incept_1_1L_3b_2"
  param {
    lr_mult: 1
    decay_mult: 1
  }
  param {
    lr_mult: 1
    decay_mult: 0
  }
  convolution_param {
    num_output: 32
    pad: 1
    kernel_size: 3
    stride: 1
    weight_filler {
      type: "msra"
    }
    bias_filler {
      type: "constant"
    }
    engine: CUDNN
  }
}

layer {
  name: "incept_1_1L_3b_relu2"
  type: "ReLU"
  bottom: "incept_1_1L_3b_2"
  top: "incept_1_1L_3b_2"
  relu_param{
  	negative_slope: 0.1
  }
}
layer {
  name: "incept_1_1L_3b_3"
  type: "Convolution"
  bottom: "incept_1_1L_3b_2"
  top: "incept_1_1L_3b_3"
  param {
    lr_mult: 1
    decay_mult: 1
  }
  param {
    lr_mult: 1
    decay_mult: 0
  }
  convolution_param {
    num_output: 48
    pad: 1
    kernel_size: 3
    stride: 1
    weight_filler {
      type: "msra"
    }
    bias_filler {
      type: "constant"
    }
    engine: CUDNN
  }
}

layer {
  name: "incept_1_1L_3b_relu3"
  type: "ReLU"
  bottom: "incept_1_1L_3b_3"
  top: "incept_1_1L_3b_3"
  relu_param{
  	negative_slope: 0.1
  }
}


layer {
  name: "incept_1_1L_4b_1"   
  type: "Pooling" 
  bottom: "conv1_1_1L" 
  top: "incept_1_1L_4b_1" 

  pooling_param {
    pool: MAX  
    pad: 1
    kernel_size: 3  
    stride: 1 
  }
}

layer {
  name: "incept_1_1L_4b_relu1"
  type: "ReLU"
  bottom: "incept_1_1L_4b_1"
  top: "incept_1_1L_4b_1"
  relu_param{
  	negative_slope: 0.1
  }
}

layer {
  name: "incept_1_1L_4b_2"
  type: "Convolution"
  bottom: "incept_1_1L_4b_1"
  top: "incept_1_1L_4b_2"
  param {
    lr_mult: 1
    decay_mult: 1
  }
  param {
    lr_mult: 1
    decay_mult: 0
  }
  convolution_param {
    num_output: 12
    pad: 0
    kernel_size: 1
    stride: 1
    weight_filler {
      type: "msra"
    }
    bias_filler {
      type: "constant"
    }
    engine: CUDNN
  }
}
layer {
  name: "incept_1_1L_4b_relu2"
  type: "ReLU"
  bottom: "incept_1_1L_4b_2"
  top: "incept_1_1L_4b_2"
  relu_param{
  	negative_slope: 0.1
  }
}
layer {
  name: "concat_1_1L"
  type: "Concat"
  bottom: "incept_1_1L_1b_1"
  bottom: "incept_1_1L_2b_2"
  bottom: "incept_1_1L_3b_3"
  bottom: "incept_1_1L_4b_2"
  top: "concat_1_1L"
}


layer {
  name: "conv2_1_1L"
  type: "Convolution"
  bottom: "concat_1_1L"
  top: "conv2_1_1L"
  param {
    lr_mult: 1
    decay_mult: 1
  }
  param {
    lr_mult: 1
    decay_mult: 0
  }
  convolution_param {
    num_output: 64
    pad: 0
    kernel_size: 1
    stride: 1
    weight_filler {
      type: "msra"
    }
    bias_filler {
      type: "constant"
    }
    engine: CUDNN
  }
}
layer {
  name: "relu2_1_1L"
  type: "ReLU"
  bottom: "conv2_1_1L"
  top: "conv2_1_1L"
  relu_param{
  	negative_slope: 0.1
  }
}
layer {
  name: "conv3_1_1L"
  type: "Convolution"
  bottom: "conv2_1_1L"
  top: "conv3_1_1L"
  param {
    lr_mult: 1
    decay_mult: 1
  }
  param {
    lr_mult: 1
    decay_mult: 0
  }
  convolution_param {
    num_output: 64
    pad: 1
    kernel_size: 3
    stride: 1
    weight_filler {
      type: "msra"
    }
    bias_filler {
      type: "constant"
    }
    engine: CUDNN
  }
}
layer {
  name: "relu3_1_1L"
  type: "ReLU"
  bottom: "conv3_1_1L"
  top: "conv3_1_1L"
  relu_param{
  	negative_slope: 0.1
  }
}

layer {
  name: "conv4_1_1L"
  type: "Convolution"
  bottom: "conv3_1_1L"
  top: "conv4_1_1L"
  param {
    lr_mult: 1
    decay_mult: 1
  }
  param {
    lr_mult: 1
    decay_mult: 0
  }
  convolution_param {
    num_output: 64
    pad: 1
    kernel_size: 3
    stride: 1
    weight_filler {
      type: "msra"
    }
    bias_filler {
      type: "constant"
    }
    engine: CUDNN
  }
}
layer {
  name: "relu4_1_1L"
  type: "ReLU"
  bottom: "conv4_1_1L"
  top: "conv4_1_1L"
  relu_param{
  	negative_slope: 0.1
  }
}
layer {
  name: "conv5_1_1L"
  type: "Convolution"
  bottom: "conv4_1_1L"
  top: "conv5_1_1L"
  param {
    lr_mult: 1
    decay_mult: 1
  }
  param {
    lr_mult: 1
    decay_mult: 0
  }
  convolution_param {
    num_output: 64
    pad: 1
    kernel_size: 3
    stride: 1
    weight_filler {
      type: "msra"
    }
    bias_filler {
      type: "constant"
    }
    engine: CUDNN
  }
}
layer {
  name: "relu5_1_1L"
  type: "ReLU"
  bottom: "conv5_1_1L"
  top: "conv5_1_1L"
  relu_param{
  	negative_slope: 0.1
  }
}

layer {
  name: "conv6_1_1L"
  type: "Convolution"
  bottom: "conv5_1_1L"
  top: "conv6_1_1L"
  param {
    lr_mult: 1
    decay_mult: 1
  }
  param {
    lr_mult: 1
    decay_mult: 0
  }
  convolution_param {
    num_output: 32
    pad: 1
    kernel_size: 3
    stride: 1
    weight_filler {
      type: "msra"
    }
    bias_filler {
      type: "constant"
    }
    engine: CUDNN
  }
}
layer {
  name: "relu6_1_1L"
  type: "ReLU"
  bottom: "conv6_1_1L"
  top: "conv6_1_1L"
  relu_param{
  	negative_slope: 0.1
  }
}
layer {
  name: "conv7_1_1L"
  type: "Convolution"
  bottom: "conv6_1_1L"
  top: "conv7_1_1L"
  param {
    lr_mult: 1
    decay_mult: 1
  }
  param {
    lr_mult: 1
    decay_mult: 0
  }
  convolution_param {
    num_output: 16
    pad: 1
    kernel_size: 3
    stride: 1
    weight_filler {
      type: "msra"
    }
    bias_filler {
      type: "constant"
    }
    engine: CUDNN
  }
}
layer {
  name: "relu7_1_1L"
  type: "ReLU"
  bottom: "conv7_1_1L"
  top: "conv7_1_1L"
  relu_param{
  	negative_slope: 0.1
  }
}

layer {
  name: "conv8_1_1L"
  type: "Convolution"
  bottom: "conv7_1_1L"
  top: "conv8_1_1L"
  param {
    lr_mult: 1
    decay_mult: 1
  }
  param {
    lr_mult: 1
    decay_mult: 0
  }
  convolution_param {
    num_output: 8
    pad: 1
    kernel_size: 3
    stride: 1
    weight_filler {
      type: "msra"
    }
    bias_filler {
      type: "constant"
    }
    engine: CUDNN
  }
}
layer {
  name: "relu8_1_1L"
  type: "ReLU"
  bottom: "conv8_1_1L"
  top: "conv8_1_1L"
  relu_param{
  	negative_slope: 0.1
  }
}
layer {
  name: "conv9_1_1L"
  type: "Convolution"
  bottom: "conv8_1_1L"
  top: "predict_flow_1_1L"
  param {
    lr_mult: 1
    decay_mult: 1
  }
  param {
    lr_mult: 1
    decay_mult: 0
  }
  convolution_param {
    num_output: 2
    pad: 3
    kernel_size: 7
    stride: 1
    weight_filler {
      type: "msra"
    }
    bias_filler {
      type: "constant"
    }
    engine: CUDNN
  }
}
layer {
  name: "scaled_flow_gt_1_1L"
  type: "Downsample"
  bottom: "scaled_flow_gt"
  bottom: "predict_flow_1_1L"
  top: "scaled_flow_gt_1_1L"
  propagate_down: false
  propagate_down: false
}
layer {
  name: "loss_1_1L"
  type: "L1Loss"
  bottom: "predict_flow_1_1L"
  bottom: "scaled_flow_gt_1_1L"
  top: "loss_1_1L"
  loss_weight: 0.32
  l1_loss_param {
    l2_per_location: true
  }
}
##### G1_2 #####
layer {
  name: "flow_2_1L"
  type: "Eltwise"
  bottom: "predict_flow_1_1L"
  top: "flow_2_1L"
  eltwise_param {
    operation: SUM
    coeff: 0.625
  }
}

layer {
  name: "warped_2_1L"
  type: "Warp"
  bottom: "conv1_5_b"
  bottom: "flow_2_1L"
  top: "warped_2_1L"
}
layer {
  name: "corr_2_1L"
  type: "Correlation"
  bottom: "conv0_5_b"
  bottom: "warped_2_1L"
  top: "corr_2_1L"
  correlation_param {
    pad: 4
    kernel_size: 1
    max_displacement: 4
    stride_1: 1
    stride_2: 1
  }
}
layer {
  name: "corr_2_1L_relu"
  type: "ReLU"
  bottom: "corr_2_1L"
  top: "corr_2_1L"
  relu_param {
    negative_slope: 0.1
  }
}
layer {
  name: "corr_2_1L_concat"
  type: "Concat"
  bottom: "corr_2_1L"
  bottom: "conv0_5_b"
  bottom: "predict_flow_1_1L"
  top: "corr_2_1L_concat"
  concat_param {
    axis: 1
  }
}

layer {
  name: "conv1_2_1L"
  type: "Convolution"
  bottom: "corr_2_1L_concat"
  top: "conv1_2_1L"
  param {
    lr_mult: 1
    decay_mult: 1
  }
  param {
    lr_mult: 1
    decay_mult: 0
  }
  convolution_param {
    num_output: 96
    pad: 1
    kernel_size: 3
    stride: 1
    weight_filler {
      type: "msra"
    }
    bias_filler {
      type: "constant"
    }
    engine: CUDNN
  }
}


layer {
  name: "relu1_2_1L"
  type: "ReLU"
  bottom: "conv1_2_1L"
  top: "conv1_2_1L"
  relu_param{
  	negative_slope: 0.1
  }
}


layer {
  name: "incept_2_1L_1b_1"
  type: "Convolution"
  bottom: "conv1_2_1L"
  top: "incept_2_1L_1b_1"
  param {
    lr_mult: 1
    decay_mult: 1
  }
  param {
    lr_mult: 1
    decay_mult: 0
  }
  convolution_param {
    num_output: 36
    pad: 0
    kernel_size: 1
    stride: 1
    weight_filler {
      type: "msra"
    }
    bias_filler {
      type: "constant"
    }
    engine: CUDNN
  }
}

layer {
  name: "incept_2_1L_1b_relu1"
  type: "ReLU"
  bottom: "incept_2_1L_1b_1"
  top: "incept_2_1L_1b_1"
  relu_param{
  	negative_slope: 0.1
  }
}

layer {
  name: "incept_2_1L_2b_1"
  type: "Convolution"
  bottom: "conv1_2_1L"
  top: "incept_2_1L_2b_1"
  param {
    lr_mult: 1
    decay_mult: 1
  }
  param {
    lr_mult: 1
    decay_mult: 0
  }
  convolution_param {
    num_output: 48
    pad: 0
    kernel_size: 1
    stride: 1
    weight_filler {
      type: "msra"
    }
    bias_filler {
      type: "constant"
    }
    engine: CUDNN
  }
}

layer {
  name: "incept_2_1L_2b_relu1"
  type: "ReLU"
  bottom: "incept_2_1L_2b_1"
  top: "incept_2_1L_2b_1"
  relu_param{
  	negative_slope: 0.1
  }
}


layer {
  name: "incept_2_1L_2b_2"
  type: "Convolution"
  bottom: "incept_2_1L_2b_1"
  top: "incept_2_1L_2b_2"
  param {
    lr_mult: 1
    decay_mult: 1
  }
  param {
    lr_mult: 1
    decay_mult: 0
  }
  convolution_param {
    num_output: 64
    pad: 1
    kernel_size: 3
    stride: 1
    weight_filler {
      type: "msra"
    }
    bias_filler {
      type: "constant"
    }
    engine: CUDNN
  }
}

layer {
  name: "incept_2_1L_2b_relu2"
  type: "ReLU"
  bottom: "incept_2_1L_2b_2"
  top: "incept_2_1L_2b_2"
  relu_param{
  	negative_slope: 0.1
  }
}



layer {
  name: "incept_2_1L_3b_1"
  type: "Convolution"
  bottom: "conv1_2_1L"
  top: "incept_2_1L_3b_1"
  param {
    lr_mult: 1
    decay_mult: 1
  }
  param {
    lr_mult: 1
    decay_mult: 0
  }
  convolution_param {
    num_output: 16
    pad: 0
    kernel_size: 1
    stride: 1
    weight_filler {
      type: "msra"
    }
    bias_filler {
      type: "constant"
    }
    engine: CUDNN
  }
}

layer {
  name: "incept_2_1L_3b_relu1"
  type: "ReLU"
  bottom: "incept_2_1L_3b_1"
  top: "incept_2_1L_3b_1"
  relu_param{
  	negative_slope: 0.1
  }
}


layer {
  name: "incept_2_1L_3b_2"
  type: "Convolution"
  bottom: "incept_2_1L_3b_1"
  top: "incept_2_1L_3b_2"
  param {
    lr_mult: 1
    decay_mult: 1
  }
  param {
    lr_mult: 1
    decay_mult: 0
  }
  convolution_param {
    num_output: 32
    pad: 1
    kernel_size: 3
    stride: 1
    weight_filler {
      type: "msra"
    }
    bias_filler {
      type: "constant"
    }
    engine: CUDNN
  }
}

layer {
  name: "incept_2_1L_3b_relu2"
  type: "ReLU"
  bottom: "incept_2_1L_3b_2"
  top: "incept_2_1L_3b_2"
  relu_param{
  	negative_slope: 0.1
  }
}
layer {
  name: "incept_2_1L_3b_3"
  type: "Convolution"
  bottom: "incept_2_1L_3b_2"
  top: "incept_2_1L_3b_3"
  param {
    lr_mult: 1
    decay_mult: 1
  }
  param {
    lr_mult: 1
    decay_mult: 0
  }
  convolution_param {
    num_output: 48
    pad: 1
    kernel_size: 3
    stride: 1
    weight_filler {
      type: "msra"
    }
    bias_filler {
      type: "constant"
    }
    engine: CUDNN
  }
}

layer {
  name: "incept_2_1L_3b_relu3"
  type: "ReLU"
  bottom: "incept_2_1L_3b_3"
  top: "incept_2_1L_3b_3"
  relu_param{
  	negative_slope: 0.1
  }
}


layer {
  name: "incept_2_1L_4b_1"   
  type: "Pooling" 
  bottom: "conv1_2_1L" 
  top: "incept_2_1L_4b_1" 

  pooling_param {
    pool: MAX  
	pad: 1
    kernel_size: 3  
    stride: 1 
  }
}

layer {
  name: "incept_2_1L_4b_relu1"
  type: "ReLU"
  bottom: "incept_2_1L_4b_1"
  top: "incept_2_1L_4b_1"
  relu_param{
  	negative_slope: 0.1
  }
}

layer {
  name: "incept_2_1L_4b_2"
  type: "Convolution"
  bottom: "incept_2_1L_4b_1"
  top: "incept_2_1L_4b_2"
  param {
    lr_mult: 1
    decay_mult: 1
  }
  param {
    lr_mult: 1
    decay_mult: 0
  }
  convolution_param {
    num_output: 12
    pad: 0
    kernel_size: 1
    stride: 1
    weight_filler {
      type: "msra"
    }
    bias_filler {
      type: "constant"
    }
    engine: CUDNN
  }
}
layer {
  name: "incept_2_1L_4b_relu2"
  type: "ReLU"
  bottom: "incept_2_1L_4b_2"
  top: "incept_2_1L_4b_2"
  relu_param{
  	negative_slope: 0.1
  }
}
layer {
  name: "concat_2_1L"
  type: "Concat"
  bottom: "incept_2_1L_1b_1"
  bottom: "incept_2_1L_2b_2"
  bottom: "incept_2_1L_3b_3"
  bottom: "incept_2_1L_4b_2"
  top: "concat_2_1L"
}


layer {
  name: "conv2_2_1L"
  type: "Convolution"
  bottom: "concat_2_1L"
  top: "conv2_2_1L"
  param {
    lr_mult: 1
    decay_mult: 1
  }
  param {
    lr_mult: 1
    decay_mult: 0
  }
  convolution_param {
    num_output: 64
    pad: 0
    kernel_size: 1
    stride: 1
    weight_filler {
      type: "msra"
    }
    bias_filler {
      type: "constant"
    }
    engine: CUDNN
  }
}
layer {
  name: "relu2_2_1L"
  type: "ReLU"
  bottom: "conv2_2_1L"
  top: "conv2_2_1L"
  relu_param{
  	negative_slope: 0.1
  }
}
########## Dense Connection ###########
layer {
  name: "dense_connection_1_2_1L"
  type: "Concat"
  bottom: "conv2_1_1L"
  bottom: "conv2_2_1L"
  top: "dense_connection_1_2_1L"
}
#######################################
layer {
  name: "conv3_2_1L"
  type: "Convolution"
  bottom: "dense_connection_1_2_1L"
  top: "conv3_2_1L"
  param {
    lr_mult: 1
    decay_mult: 1
  }
  param {
    lr_mult: 1
    decay_mult: 0
  }
  convolution_param {
    num_output: 64
    pad: 1
    kernel_size: 3
    stride: 1
    weight_filler {
      type: "msra"
    }
    bias_filler {
      type: "constant"
    }
    engine: CUDNN
  }
}
layer {
  name: "relu3_2_1L"
  type: "ReLU"
  bottom: "conv3_2_1L"
  top: "conv3_2_1L"
  relu_param{
  	negative_slope: 0.1
  }
}

layer {
  name: "conv4_2_1L"
  type: "Convolution"
  bottom: "conv3_2_1L"
  top: "conv4_2_1L"
  param {
    lr_mult: 1
    decay_mult: 1
  }
  param {
    lr_mult: 1
    decay_mult: 0
  }
  convolution_param {
    num_output: 64
    pad: 1
    kernel_size: 3
    stride: 1
    weight_filler {
      type: "msra"
    }
    bias_filler {
      type: "constant"
    }
    engine: CUDNN
  }
}
layer {
  name: "relu4_2_1L"
  type: "ReLU"
  bottom: "conv4_2_1L"
  top: "conv4_2_1L"
  relu_param{
  	negative_slope: 0.1
  }
}
layer {
  name: "conv5_2_1L"
  type: "Convolution"
  bottom: "conv4_2_1L"
  top: "conv5_2_1L"
  param {
    lr_mult: 1
    decay_mult: 1
  }
  param {
    lr_mult: 1
    decay_mult: 0
  }
  convolution_param {
    num_output: 64
    pad: 1
    kernel_size: 3
    stride: 1
    weight_filler {
      type: "msra"
    }
    bias_filler {
      type: "constant"
    }
    engine: CUDNN
  }
}
layer {
  name: "relu5_2_1L"
  type: "ReLU"
  bottom: "conv5_2_1L"
  top: "conv5_2_1L"
  relu_param{
  	negative_slope: 0.1
  }
}

layer {
  name: "conv6_2_1L"
  type: "Convolution"
  bottom: "conv5_2_1L"
  top: "conv6_2_1L"
  param {
    lr_mult: 1
    decay_mult: 1
  }
  param {
    lr_mult: 1
    decay_mult: 0
  }
  convolution_param {
    num_output: 32
    pad: 1
    kernel_size: 3
    stride: 1
    weight_filler {
      type: "msra"
    }
    bias_filler {
      type: "constant"
    }
    engine: CUDNN
  }
}
layer {
  name: "relu6_2_1L"
  type: "ReLU"
  bottom: "conv6_2_1L"
  top: "conv6_2_1L"
  relu_param{
  	negative_slope: 0.1
  }
}
layer {
  name: "conv7_2_1L"
  type: "Convolution"
  bottom: "conv6_2_1L"
  top: "conv7_2_1L"
  param {
    lr_mult: 1
    decay_mult: 1
  }
  param {
    lr_mult: 1
    decay_mult: 0
  }
  convolution_param {
    num_output: 16
    pad: 1
    kernel_size: 3
    stride: 1
    weight_filler {
      type: "msra"
    }
    bias_filler {
      type: "constant"
    }
    engine: CUDNN
  }
}
layer {
  name: "relu7_2_1L"
  type: "ReLU"
  bottom: "conv7_2_1L"
  top: "conv7_2_1L"
  relu_param{
  	negative_slope: 0.1
  }
}

layer {
  name: "conv8_2_1L"
  type: "Convolution"
  bottom: "conv7_2_1L"
  top: "conv8_2_1L"
  param {
    lr_mult: 1
    decay_mult: 1
  }
  param {
    lr_mult: 1
    decay_mult: 0
  }
  convolution_param {
    num_output: 8
    pad: 1
    kernel_size: 3
    stride: 1
    weight_filler {
      type: "msra"
    }
    bias_filler {
      type: "constant"
    }
    engine: CUDNN
  }
}
layer {
  name: "relu8_2_1L"
  type: "ReLU"
  bottom: "conv8_2_1L"
  top: "conv8_2_1L"
  relu_param{
  	negative_slope: 0.1
  }
}
layer {
  name: "conv9_2_1L"
  type: "Convolution"
  bottom: "conv8_2_1L"
  top: "predict_res_flow_2_1L"
  param {
    lr_mult: 1
    decay_mult: 1
  }
  param {
    lr_mult: 1
    decay_mult: 0
  }
  convolution_param {
    num_output: 2
    pad: 3
    kernel_size: 7
    stride: 1
    weight_filler {
      type: "msra"
    }
    bias_filler {
      type: "constant"
    }
    engine: CUDNN
  }
}
layer {
	name: "predict_flow_2_1L"
	type: "Eltwise"
	bottom: "predict_flow_1_1L"
	bottom: "predict_res_flow_2_1L"
	top: "predict_flow_2_1L"
	eltwise_param { operation: SUM }
}
layer {
  name: "scaled_flow_gt_2_1L"
  type: "Downsample"
  bottom: "scaled_flow_gt"
  bottom: "predict_flow_2_1L"
  top: "scaled_flow_gt_2_1L"
  propagate_down: false
  propagate_down: false
}
layer {
  name: "loss_2_1L"
  type: "L1Loss"
  bottom: "predict_flow_2_1L"
  bottom: "scaled_flow_gt_2_1L"
  top: "loss_2_1L"
  loss_weight: 0.32
  l1_loss_param {
    l2_per_location: true
  }
}
##### G1_3 #####
layer {
  name: "flow_3_1L"
  type: "Eltwise"
  bottom: "predict_flow_2_1L"
  top: "flow_3_1L"
  eltwise_param {
    operation: SUM
    coeff: 0.625
  }
}
layer {
  name: "warped_3_1L"
  type: "Warp"
  bottom: "conv1_5_b" 
  bottom: "flow_3_1L" 
  top: "warped_3_1L"
}
layer {
  name: "corr_3_1L"
  type: "Correlation"
  bottom: "conv0_5_b" 
  bottom: "warped_3_1L"
  top: "corr_3_1L"
  correlation_param {
    pad: 4
    kernel_size: 1
    max_displacement: 4
    stride_1: 1
    stride_2: 1
  }
}
layer {
  name: "corr_3_1L_relu"
  type: "ReLU"
  bottom: "corr_3_1L"
  top: "corr_3_1L"
  relu_param {
    negative_slope: 0.1
  }
}
layer {
  name: "corr_3_1L_concat"
  type: "Concat"
  bottom: "corr_3_1L"
  bottom: "conv0_5_b" 
  bottom: "predict_flow_2_1L" 
  top: "corr_3_1L_concat"
  concat_param {
    axis: 1
  }
}

layer {
  name: "conv1_3_1L"
  type: "Convolution"
  bottom: "corr_3_1L_concat"
  top: "conv1_3_1L"
  param {
    lr_mult: 1
    decay_mult: 1
  }
  param {
    lr_mult: 1
    decay_mult: 0
  }
  convolution_param {
    num_output: 96
    pad: 1
    kernel_size: 3
    stride: 1
    weight_filler {
      type: "msra"
    }
    bias_filler {
      type: "constant"
    }
    engine: CUDNN
  }
}


layer {
  name: "relu1_3_1L"
  type: "ReLU"
  bottom: "conv1_3_1L"
  top: "conv1_3_1L"
  relu_param{
  	negative_slope: 0.1
  }
}


layer {
  name: "incept_3_1L_1b_1"
  type: "Convolution"
  bottom: "conv1_3_1L"
  top: "incept_3_1L_1b_1"
  param {
    lr_mult: 1
    decay_mult: 1
  }
  param {
    lr_mult: 1
    decay_mult: 0
  }
  convolution_param {
    num_output: 36
    pad: 0
    kernel_size: 1
    stride: 1
    weight_filler {
      type: "msra"
    }
    bias_filler {
      type: "constant"
    }
    engine: CUDNN
  }
}

layer {
  name: "incept_3_1L_1b_relu1"
  type: "ReLU"
  bottom: "incept_3_1L_1b_1"
  top: "incept_3_1L_1b_1"
  relu_param{
  	negative_slope: 0.1
  }
}

layer {
  name: "incept_3_1L_2b_1"
  type: "Convolution"
  bottom: "conv1_3_1L"
  top: "incept_3_1L_2b_1"
  param {
    lr_mult: 1
    decay_mult: 1
  }
  param {
    lr_mult: 1
    decay_mult: 0
  }
  convolution_param {
    num_output: 48
    pad: 0
    kernel_size: 1
    stride: 1
    weight_filler {
      type: "msra"
    }
    bias_filler {
      type: "constant"
    }
    engine: CUDNN
  }
}

layer {
  name: "incept_3_1L_2b_relu1"
  type: "ReLU"
  bottom: "incept_3_1L_2b_1"
  top: "incept_3_1L_2b_1"
  relu_param{
  	negative_slope: 0.1
  }
}


layer {
  name: "incept_3_1L_2b_2"
  type: "Convolution"
  bottom: "incept_3_1L_2b_1"
  top: "incept_3_1L_2b_2"
  param {
    lr_mult: 1
    decay_mult: 1
  }
  param {
    lr_mult: 1
    decay_mult: 0
  }
  convolution_param {
    num_output: 64
    pad: 1
    kernel_size: 3
    stride: 1
    weight_filler {
      type: "msra"
    }
    bias_filler {
      type: "constant"
    }
    engine: CUDNN
  }
}

layer {
  name: "incept_3_1L_2b_relu2"
  type: "ReLU"
  bottom: "incept_3_1L_2b_2"
  top: "incept_3_1L_2b_2"
  relu_param{
  	negative_slope: 0.1
  }
}



layer {
  name: "incept_3_1L_3b_1"
  type: "Convolution"
  bottom: "conv1_3_1L"
  top: "incept_3_1L_3b_1"
  param {
    lr_mult: 1
    decay_mult: 1
  }
  param {
    lr_mult: 1
    decay_mult: 0
  }
  convolution_param {
    num_output: 16
    pad: 0
    kernel_size: 1
    stride: 1
    weight_filler {
      type: "msra"
    }
    bias_filler {
      type: "constant"
    }
    engine: CUDNN
  }
}

layer {
  name: "incept_3_1L_3b_relu1"
  type: "ReLU"
  bottom: "incept_3_1L_3b_1"
  top: "incept_3_1L_3b_1"
  relu_param{
  	negative_slope: 0.1
  }
}


layer {
  name: "incept_3_1L_3b_2"
  type: "Convolution"
  bottom: "incept_3_1L_3b_1"
  top: "incept_3_1L_3b_2"
  param {
    lr_mult: 1
    decay_mult: 1
  }
  param {
    lr_mult: 1
    decay_mult: 0
  }
  convolution_param {
    num_output: 32
    pad: 1
    kernel_size: 3
    stride: 1
    weight_filler {
      type: "msra"
    }
    bias_filler {
      type: "constant"
    }
    engine: CUDNN
  }
}

layer {
  name: "incept_3_1L_3b_relu2"
  type: "ReLU"
  bottom: "incept_3_1L_3b_2"
  top: "incept_3_1L_3b_2"
  relu_param{
  	negative_slope: 0.1
  }
}
layer {
  name: "incept_3_1L_3b_3"
  type: "Convolution"
  bottom: "incept_3_1L_3b_2"
  top: "incept_3_1L_3b_3"
  param {
    lr_mult: 1
    decay_mult: 1
  }
  param {
    lr_mult: 1
    decay_mult: 0
  }
  convolution_param {
    num_output: 48
    pad: 1
    kernel_size: 3
    stride: 1
    weight_filler {
      type: "msra"
    }
    bias_filler {
      type: "constant"
    }
    engine: CUDNN
  }
}

layer {
  name: "incept_3_1L_3b_relu3"
  type: "ReLU"
  bottom: "incept_3_1L_3b_3"
  top: "incept_3_1L_3b_3"
  relu_param{
  	negative_slope: 0.1
  }
}


layer {
  name: "incept_3_1L_4b_1"   
  type: "Pooling" 
  bottom: "conv1_3_1L" 
  top: "incept_3_1L_4b_1" 

  pooling_param {
    pool: MAX  
	pad: 1
    kernel_size: 3  
    stride: 1 
  }
}

layer {
  name: "incept_3_1L_4b_relu1"
  type: "ReLU"
  bottom: "incept_3_1L_4b_1"
  top: "incept_3_1L_4b_1"
  relu_param{
  	negative_slope: 0.1
  }
}

layer {
  name: "incept_3_1L_4b_2"
  type: "Convolution"
  bottom: "incept_3_1L_4b_1"
  top: "incept_3_1L_4b_2"
  param {
    lr_mult: 1
    decay_mult: 1
  }
  param {
    lr_mult: 1
    decay_mult: 0
  }
  convolution_param {
    num_output: 12
    pad: 0
    kernel_size: 1
    stride: 1
    weight_filler {
      type: "msra"
    }
    bias_filler {
      type: "constant"
    }
    engine: CUDNN
  }
}
layer {
  name: "incept_3_1L_4b_relu2"
  type: "ReLU"
  bottom: "incept_3_1L_4b_2"
  top: "incept_3_1L_4b_2"
  relu_param{
  	negative_slope: 0.1
  }
}
layer {
  name: "concat_3_1L"
  type: "Concat"
  bottom: "incept_3_1L_1b_1"
  bottom: "incept_3_1L_2b_2"
  bottom: "incept_3_1L_3b_3"
  bottom: "incept_3_1L_4b_2"
  top: "concat_3_1L"
}



layer {
  name: "conv2_3_1L"
  type: "Convolution"
  bottom: "concat_3_1L"
  top: "conv2_3_1L"
  param {
    lr_mult: 1
    decay_mult: 1
  }
  param {
    lr_mult: 1
    decay_mult: 0
  }
  convolution_param {
    num_output: 64
    pad: 0
    kernel_size: 1
    stride: 1
    weight_filler {
      type: "msra"
    }
    bias_filler {
      type: "constant"
    }
    engine: CUDNN
  }
}
layer {
  name: "relu2_3_1L"
  type: "ReLU"
  bottom: "conv2_3_1L"
  top: "conv2_3_1L"
  relu_param{
  	negative_slope: 0.1
  }
}
########## Dense Connection ###########
layer {
  name: "dense_connection_1_2_3_1L"
  type: "Concat"
  bottom: "conv2_1_1L"
  bottom: "conv2_2_1L"
  bottom: "conv2_3_1L"
  top: "dense_connection_1_2_3_1L"
}
#######################################
layer {
  name: "conv3_3_1L"
  type: "Convolution"
  bottom: "dense_connection_1_2_3_1L"
  top: "conv3_3_1L"
  param {
    lr_mult: 1
    decay_mult: 1
  }
  param {
    lr_mult: 1
    decay_mult: 0
  }
  convolution_param {
    num_output: 64
    pad: 1
    kernel_size: 3
    stride: 1
    weight_filler {
      type: "msra"
    }
    bias_filler {
      type: "constant"
    }
    engine: CUDNN
  }
}
layer {
  name: "relu3_3_1L"
  type: "ReLU"
  bottom: "conv3_3_1L"
  top: "conv3_3_1L"
  relu_param{
  	negative_slope: 0.1
  }
}

layer {
  name: "conv4_3_1L"
  type: "Convolution"
  bottom: "conv3_3_1L"
  top: "conv4_3_1L"
  param {
    lr_mult: 1
    decay_mult: 1
  }
  param {
    lr_mult: 1
    decay_mult: 0
  }
  convolution_param {
    num_output: 64
    pad: 1
    kernel_size: 3
    stride: 1
    weight_filler {
      type: "msra"
    }
    bias_filler {
      type: "constant"
    }
    engine: CUDNN
  }
}
layer {
  name: "relu4_3_1L"
  type: "ReLU"
  bottom: "conv4_3_1L"
  top: "conv4_3_1L"
  relu_param{
  	negative_slope: 0.1
  }
}
layer {
  name: "conv5_3_1L"
  type: "Convolution"
  bottom: "conv4_3_1L"
  top: "conv5_3_1L"
  param {
    lr_mult: 1
    decay_mult: 1
  }
  param {
    lr_mult: 1
    decay_mult: 0
  }
  convolution_param {
    num_output: 64
    pad: 1
    kernel_size: 3
    stride: 1
    weight_filler {
      type: "msra"
    }
    bias_filler {
      type: "constant"
    }
    engine: CUDNN
  }
}
layer {
  name: "relu5_3_1L"
  type: "ReLU"
  bottom: "conv5_3_1L"
  top: "conv5_3_1L"
  relu_param{
  	negative_slope: 0.1
  }
}

layer {
  name: "conv6_3_1L"
  type: "Convolution"
  bottom: "conv5_3_1L"
  top: "conv6_3_1L"
  param {
    lr_mult: 1
    decay_mult: 1
  }
  param {
    lr_mult: 1
    decay_mult: 0
  }
  convolution_param {
    num_output: 32
    pad: 1
    kernel_size: 3
    stride: 1
    weight_filler {
      type: "msra"
    }
    bias_filler {
      type: "constant"
    }
    engine: CUDNN
  }
}
layer {
  name: "relu6_3_1L"
  type: "ReLU"
  bottom: "conv6_3_1L"
  top: "conv6_3_1L"
  relu_param{
  	negative_slope: 0.1
  }
}
layer {
  name: "conv7_3_1L"
  type: "Convolution"
  bottom: "conv6_3_1L"
  top: "conv7_3_1L"
  param {
    lr_mult: 1
    decay_mult: 1
  }
  param {
    lr_mult: 1
    decay_mult: 0
  }
  convolution_param {
    num_output: 16
    pad: 1
    kernel_size: 3
    stride: 1
    weight_filler {
      type: "msra"
    }
    bias_filler {
      type: "constant"
    }
    engine: CUDNN
  }
}
layer {
  name: "relu7_3_1L"
  type: "ReLU"
  bottom: "conv7_3_1L"
  top: "conv7_3_1L"
  relu_param{
  	negative_slope: 0.1
  }
}

layer {
  name: "conv8_3_1L"
  type: "Convolution"
  bottom: "conv7_3_1L"
  top: "conv8_3_1L"
  param {
    lr_mult: 1
    decay_mult: 1
  }
  param {
    lr_mult: 1
    decay_mult: 0
  }
  convolution_param {
    num_output: 8
    pad: 1
    kernel_size: 3
    stride: 1
    weight_filler {
      type: "msra"
    }
    bias_filler {
      type: "constant"
    }
    engine: CUDNN
  }
}
layer {
  name: "relu8_3_1L"
  type: "ReLU"
  bottom: "conv8_3_1L"
  top: "conv8_3_1L"
  relu_param{
  	negative_slope: 0.1
  }
}
layer {
  name: "conv9_3_1L"
  type: "Convolution"
  bottom: "conv8_3_1L"
  top: "predict_res_flow_3_1L"
  param {
    lr_mult: 1
    decay_mult: 1
  }
  param {
    lr_mult: 1
    decay_mult: 0
  }
  convolution_param {
    num_output: 2
    pad: 3
    kernel_size: 7
    stride: 1
    weight_filler {
      type: "msra"
    }
    bias_filler {
      type: "constant"
    }
    engine: CUDNN
  }
}
layer {
	name: "predict_flow_3_1L"
	type: "Eltwise"
	bottom: "predict_flow_2_1L" 
	bottom: "predict_res_flow_3_1L"
	top: "predict_flow_3_1L"
	eltwise_param { operation: SUM }
}
layer {
  name: "scaled_flow_gt_3_1L"
  type: "Downsample"
  bottom: "scaled_flow_gt"
  bottom: "predict_flow_3_1L"
  top: "scaled_flow_gt_3_1L"
  propagate_down: false
  propagate_down: false
}
layer {
  name: "loss_3_1L"
  type: "L1Loss"
  bottom: "predict_flow_3_1L"
  bottom: "scaled_flow_gt_3_1L"
  top: "loss_3_1L"
  loss_weight: 0.32
  l1_loss_param {
    l2_per_location: true
  }
}



##### G1_4 #####
layer {
  name: "flow_4_1L"
  type: "Eltwise"
  bottom: "predict_flow_3_1L"
  top: "flow_4_1L"
  eltwise_param {
    operation: SUM
    coeff: 0.625
  }
}
layer {
  name: "warped_4_1L"
  type: "Warp"
  bottom: "conv1_5_b"  
  bottom: "flow_4_1L" 
  top: "warped_4_1L"
}
layer {
  name: "corr_4_1L"
  type: "Correlation"
  bottom: "conv0_5_b"  
  bottom: "warped_4_1L"
  top: "corr_4_1L"
  correlation_param {
    pad: 4
    kernel_size: 1
    max_displacement: 4
    stride_1: 1
    stride_2: 1
  }
}
layer {
  name: "corr_4_1L_relu"
  type: "ReLU"
  bottom: "corr_4_1L"
  top: "corr_4_1L"
  relu_param {
    negative_slope: 0.1
  }
}
layer {
  name: "corr_4_1L_concat"
  type: "Concat"
  bottom: "corr_4_1L"
  bottom: "conv0_5_b"  
  bottom: "predict_flow_3_1L" 
  top: "corr_4_1L_concat"
  concat_param {
    axis: 1
  }
}

layer {
  name: "conv1_4_1L"
  type: "Convolution"
  bottom: "corr_4_1L_concat"
  top: "conv1_4_1L"
  param {
    lr_mult: 1
    decay_mult: 1
  }
  param {
    lr_mult: 1
    decay_mult: 0
  }
  convolution_param {
    num_output: 96
    pad: 1
    kernel_size: 3
    stride: 1
    weight_filler {
      type: "msra"
    }
    bias_filler {
      type: "constant"
    }
    engine: CUDNN
  }
}


layer {
  name: "relu1_4_1L"
  type: "ReLU"
  bottom: "conv1_4_1L"
  top: "conv1_4_1L"
  relu_param{
  	negative_slope: 0.1
  }
}


layer {
  name: "incept_4_1L_1b_1"
  type: "Convolution"
  bottom: "conv1_4_1L"
  top: "incept_4_1L_1b_1"
  param {
    lr_mult: 1
    decay_mult: 1
  }
  param {
    lr_mult: 1
    decay_mult: 0
  }
  convolution_param {
    num_output: 36
    pad: 0
    kernel_size: 1
    stride: 1
    weight_filler {
      type: "msra"
    }
    bias_filler {
      type: "constant"
    }
    engine: CUDNN
  }
}

layer {
  name: "incept_4_1L_1b_relu1"
  type: "ReLU"
  bottom: "incept_4_1L_1b_1"
  top: "incept_4_1L_1b_1"
  relu_param{
  	negative_slope: 0.1
  }
}

layer {
  name: "incept_4_1L_2b_1"
  type: "Convolution"
  bottom: "conv1_4_1L"
  top: "incept_4_1L_2b_1"
  param {
    lr_mult: 1
    decay_mult: 1
  }
  param {
    lr_mult: 1
    decay_mult: 0
  }
  convolution_param {
    num_output: 48
    pad: 0
    kernel_size: 1
    stride: 1
    weight_filler {
      type: "msra"
    }
    bias_filler {
      type: "constant"
    }
    engine: CUDNN
  }
}

layer {
  name: "incept_4_1L_2b_relu1"
  type: "ReLU"
  bottom: "incept_4_1L_2b_1"
  top: "incept_4_1L_2b_1"
  relu_param{
  	negative_slope: 0.1
  }
}


layer {
  name: "incept_4_1L_2b_2"
  type: "Convolution"
  bottom: "incept_4_1L_2b_1"
  top: "incept_4_1L_2b_2"
  param {
    lr_mult: 1
    decay_mult: 1
  }
  param {
    lr_mult: 1
    decay_mult: 0
  }
  convolution_param {
    num_output: 64
    pad: 1
    kernel_size: 3
    stride: 1
    weight_filler {
      type: "msra"
    }
    bias_filler {
      type: "constant"
    }
    engine: CUDNN
  }
}

layer {
  name: "incept_4_1L_2b_relu2"
  type: "ReLU"
  bottom: "incept_4_1L_2b_2"
  top: "incept_4_1L_2b_2"
  relu_param{
  	negative_slope: 0.1
  }
}



layer {
  name: "incept_4_1L_3b_1"
  type: "Convolution"
  bottom: "conv1_4_1L"
  top: "incept_4_1L_3b_1"
  param {
    lr_mult: 1
    decay_mult: 1
  }
  param {
    lr_mult: 1
    decay_mult: 0
  }
  convolution_param {
    num_output: 16
    pad: 0
    kernel_size: 1
    stride: 1
    weight_filler {
      type: "msra"
    }
    bias_filler {
      type: "constant"
    }
    engine: CUDNN
  }
}

layer {
  name: "incept_4_1L_3b_relu1"
  type: "ReLU"
  bottom: "incept_4_1L_3b_1"
  top: "incept_4_1L_3b_1"
  relu_param{
  	negative_slope: 0.1
  }
}


layer {
  name: "incept_4_1L_3b_2"
  type: "Convolution"
  bottom: "incept_4_1L_3b_1"
  top: "incept_4_1L_3b_2"
  param {
    lr_mult: 1
    decay_mult: 1
  }
  param {
    lr_mult: 1
    decay_mult: 0
  }
  convolution_param {
    num_output: 32
    pad: 1
    kernel_size: 3
    stride: 1
    weight_filler {
      type: "msra"
    }
    bias_filler {
      type: "constant"
    }
    engine: CUDNN
  }
}

layer {
  name: "incept_4_1L_3b_relu2"
  type: "ReLU"
  bottom: "incept_4_1L_3b_2"
  top: "incept_4_1L_3b_2"
  relu_param{
  	negative_slope: 0.1
  }
}
layer {
  name: "incept_4_1L_3b_3"
  type: "Convolution"
  bottom: "incept_4_1L_3b_2"
  top: "incept_4_1L_3b_3"
  param {
    lr_mult: 1
    decay_mult: 1
  }
  param {
    lr_mult: 1
    decay_mult: 0
  }
  convolution_param {
    num_output: 48
    pad: 1
    kernel_size: 3
    stride: 1
    weight_filler {
      type: "msra"
    }
    bias_filler {
      type: "constant"
    }
    engine: CUDNN
  }
}

layer {
  name: "incept_4_1L_3b_relu3"
  type: "ReLU"
  bottom: "incept_4_1L_3b_3"
  top: "incept_4_1L_3b_3"
  relu_param{
  	negative_slope: 0.1
  }
}


layer {
  name: "incept_4_1L_4b_1"   
  type: "Pooling" 
  bottom: "conv1_4_1L" 
  top: "incept_4_1L_4b_1" 

  pooling_param {
    pool: MAX  
    pad: 1
    kernel_size: 3  
    stride: 1 
  }
}

layer {
  name: "incept_4_1L_4b_relu1"
  type: "ReLU"
  bottom: "incept_4_1L_4b_1"
  top: "incept_4_1L_4b_1"
  relu_param{
  	negative_slope: 0.1
  }
}

layer {
  name: "incept_4_1L_4b_2"
  type: "Convolution"
  bottom: "incept_4_1L_4b_1"
  top: "incept_4_1L_4b_2"
  param {
    lr_mult: 1
    decay_mult: 1
  }
  param {
    lr_mult: 1
    decay_mult: 0
  }
  convolution_param {
    num_output: 12
    pad: 0
    kernel_size: 1
    stride: 1
    weight_filler {
      type: "msra"
    }
    bias_filler {
      type: "constant"
    }
    engine: CUDNN
  }
}
layer {
  name: "incept_4_1L_4b_relu2"
  type: "ReLU"
  bottom: "incept_4_1L_4b_2"
  top: "incept_4_1L_4b_2"
  relu_param{
  	negative_slope: 0.1
  }
}
layer {
  name: "concat_4_1L"
  type: "Concat"
  bottom: "incept_4_1L_1b_1"
  bottom: "incept_4_1L_2b_2"
  bottom: "incept_4_1L_3b_3"
  bottom: "incept_4_1L_4b_2"
  top: "concat_4_1L"
}



layer {
  name: "conv2_4_1L"
  type: "Convolution"
  bottom: "concat_4_1L"
  top: "conv2_4_1L"
  param {
    lr_mult: 1
    decay_mult: 1
  }
  param {
    lr_mult: 1
    decay_mult: 0
  }
  convolution_param {
    num_output: 64
    pad: 0
    kernel_size: 1
    stride: 1
    weight_filler {
      type: "msra"
    }
    bias_filler {
      type: "constant"
    }
    engine: CUDNN
  }
}
layer {
  name: "relu2_4_1L"
  type: "ReLU"
  bottom: "conv2_4_1L"
  top: "conv2_4_1L"
  relu_param{
  	negative_slope: 0.1
  }
}
########## Dense Connection ###########
layer {
  name: "dense_connection_1_2_3_4_1L"
  type: "Concat"
  bottom: "conv2_1_1L"
  bottom: "conv2_2_1L"
  bottom: "conv2_3_1L"
  bottom: "conv2_4_1L"
  top: "dense_connection_1_2_3_4_1L"
}
#######################################
layer {
  name: "conv3_4_1L"
  type: "Convolution"
  bottom: "dense_connection_1_2_3_4_1L"
  top: "conv3_4_1L"
  param {
    lr_mult: 1
    decay_mult: 1
  }
  param {
    lr_mult: 1
    decay_mult: 0
  }
  convolution_param {
    num_output: 64
    pad: 1
    kernel_size: 3
    stride: 1
    weight_filler {
      type: "msra"
    }
    bias_filler {
      type: "constant"
    }
    engine: CUDNN
  }
}
layer {
  name: "relu3_4_1L"
  type: "ReLU"
  bottom: "conv3_4_1L"
  top: "conv3_4_1L"
  relu_param{
  	negative_slope: 0.1
  }
}

layer {
  name: "conv4_4_1L"
  type: "Convolution"
  bottom: "conv3_4_1L"
  top: "conv4_4_1L"
  param {
    lr_mult: 1
    decay_mult: 1
  }
  param {
    lr_mult: 1
    decay_mult: 0
  }
  convolution_param {
    num_output: 64
    pad: 1
    kernel_size: 3
    stride: 1
    weight_filler {
      type: "msra"
    }
    bias_filler {
      type: "constant"
    }
    engine: CUDNN
  }
}
layer {
  name: "relu4_4_1L"
  type: "ReLU"
  bottom: "conv4_4_1L"
  top: "conv4_4_1L"
  relu_param{
  	negative_slope: 0.1
  }
}
layer {
  name: "conv5_4_1L"
  type: "Convolution"
  bottom: "conv4_4_1L"
  top: "conv5_4_1L"
  param {
    lr_mult: 1
    decay_mult: 1
  }
  param {
    lr_mult: 1
    decay_mult: 0
  }
  convolution_param {
    num_output: 64
    pad: 1
    kernel_size: 3
    stride: 1
    weight_filler {
      type: "msra"
    }
    bias_filler {
      type: "constant"
    }
    engine: CUDNN
  }
}
layer {
  name: "relu5_4_1L"
  type: "ReLU"
  bottom: "conv5_4_1L"
  top: "conv5_4_1L"
  relu_param{
  	negative_slope: 0.1
  }
}

layer {
  name: "conv6_4_1L"
  type: "Convolution"
  bottom: "conv5_4_1L"
  top: "conv6_4_1L"
  param {
    lr_mult: 1
    decay_mult: 1
  }
  param {
    lr_mult: 1
    decay_mult: 0
  }
  convolution_param {
    num_output: 32
    pad: 1
    kernel_size: 3
    stride: 1
    weight_filler {
      type: "msra"
    }
    bias_filler {
      type: "constant"
    }
    engine: CUDNN
  }
}
layer {
  name: "relu6_4_1L"
  type: "ReLU"
  bottom: "conv6_4_1L"
  top: "conv6_4_1L"
  relu_param{
  	negative_slope: 0.1
  }
}
layer {
  name: "conv7_4_1L"
  type: "Convolution"
  bottom: "conv6_4_1L"
  top: "conv7_4_1L"
  param {
    lr_mult: 1
    decay_mult: 1
  }
  param {
    lr_mult: 1
    decay_mult: 0
  }
  convolution_param {
    num_output: 16
    pad: 1
    kernel_size: 3
    stride: 1
    weight_filler {
      type: "msra"
    }
    bias_filler {
      type: "constant"
    }
    engine: CUDNN
  }
}
layer {
  name: "relu7_4_1L"
  type: "ReLU"
  bottom: "conv7_4_1L"
  top: "conv7_4_1L"
  relu_param{
  	negative_slope: 0.1
  }
}

layer {
  name: "conv8_4_1L"
  type: "Convolution"
  bottom: "conv7_4_1L"
  top: "conv8_4_1L"
  param {
    lr_mult: 1
    decay_mult: 1
  }
  param {
    lr_mult: 1
    decay_mult: 0
  }
  convolution_param {
    num_output: 8
    pad: 1
    kernel_size: 3
    stride: 1
    weight_filler {
      type: "msra"
    }
    bias_filler {
      type: "constant"
    }
    engine: CUDNN
  }
}
layer {
  name: "relu8_4_1L"
  type: "ReLU"
  bottom: "conv8_4_1L"
  top: "conv8_4_1L"
  relu_param{
  	negative_slope: 0.1
  }
}
layer {
  name: "conv9_4_1L"
  type: "Convolution"
  bottom: "conv8_4_1L"
  top: "predict_res_flow_4_1L"
  param {
    lr_mult: 1
    decay_mult: 1
  }
  param {
    lr_mult: 1
    decay_mult: 0
  }
  convolution_param {
    num_output: 2
    pad: 3
    kernel_size: 7
    stride: 1
    weight_filler {
      type: "msra"
    }
    bias_filler {
      type: "constant"
    }
    engine: CUDNN
  }
}
layer {
	name: "predict_flow_4_1L"
	type: "Eltwise"
	bottom: "predict_flow_3_1L" 
	bottom: "predict_res_flow_4_1L"
	top: "predict_flow_4_1L"
	eltwise_param { operation: SUM }
}
layer {
  name: "scaled_flow_gt_4_1L"
  type: "Downsample"
  bottom: "scaled_flow_gt"
  bottom: "predict_flow_4_1L"
  top: "scaled_flow_gt_4_1L"
  propagate_down: false
  propagate_down: false
}
layer {
  name: "loss_4_1L"
  type: "L1Loss"
  bottom: "predict_flow_4_1L"
  bottom: "scaled_flow_gt_4_1L"
  top: "loss_4_1L"
  loss_weight: 0.32
  l1_loss_param {
    l2_per_location: true
  }
}

##### G1_5 #####
layer {
  name: "flow_5_1L"
  type: "Eltwise"
  bottom: "predict_flow_4_1L"
  top: "flow_5_1L"
  eltwise_param {
    operation: SUM
    coeff: 0.625
  }
}
layer {
  name: "warped_5_1L"
  type: "Warp"
  bottom: "conv1_5_b"  
  bottom: "flow_5_1L" 
  top: "warped_5_1L"
}
layer {
  name: "corr_5_1L"
  type: "Correlation"
  bottom: "conv0_5_b"
  bottom: "warped_5_1L"
  top: "corr_5_1L"
  correlation_param {
    pad: 4
    kernel_size: 1
    max_displacement: 4
    stride_1: 1
    stride_2: 1
  }
}
layer {
  name: "corr_5_1L_relu"
  type: "ReLU"
  bottom: "corr_5_1L"
  top: "corr_5_1L"
  relu_param {
    negative_slope: 0.1
  }
}
layer {
  name: "corr_5_1L_concat"
  type: "Concat"
  bottom: "corr_5_1L"
  bottom: "conv0_5_b"  
  bottom: "predict_flow_4_1L" 
  top: "corr_5_1L_concat"
  concat_param {
    axis: 1
  }
}

layer {
  name: "conv1_5_1L"
  type: "Convolution"
  bottom: "corr_5_1L_concat"
  top: "conv1_5_1L"
  param {
    lr_mult: 1
    decay_mult: 1
  }
  param {
    lr_mult: 1
    decay_mult: 0
  }
  convolution_param {
    num_output: 96
    pad: 1
    kernel_size: 3
    stride: 1
    weight_filler {
      type: "msra"
    }
    bias_filler {
      type: "constant"
    }
    engine: CUDNN
  }
}


layer {
  name: "relu1_5_1L"
  type: "ReLU"
  bottom: "conv1_5_1L"
  top: "conv1_5_1L"
  relu_param{
  	negative_slope: 0.1
  }
}


layer {
  name: "incept_5_1L_1b_1"
  type: "Convolution"
  bottom: "conv1_5_1L"
  top: "incept_5_1L_1b_1"
  param {
    lr_mult: 1
    decay_mult: 1
  }
  param {
    lr_mult: 1
    decay_mult: 0
  }
  convolution_param {
    num_output: 36
    pad: 0
    kernel_size: 1
    stride: 1
    weight_filler {
      type: "msra"
    }
    bias_filler {
      type: "constant"
    }
    engine: CUDNN
  }
}

layer {
  name: "incept_5_1L_1b_relu1"
  type: "ReLU"
  bottom: "incept_5_1L_1b_1"
  top: "incept_5_1L_1b_1"
  relu_param{
  	negative_slope: 0.1
  }
}

layer {
  name: "incept_5_1L_2b_1"
  type: "Convolution"
  bottom: "conv1_5_1L"
  top: "incept_5_1L_2b_1"
  param {
    lr_mult: 1
    decay_mult: 1
  }
  param {
    lr_mult: 1
    decay_mult: 0
  }
  convolution_param {
    num_output: 48
    pad: 0
    kernel_size: 1
    stride: 1
    weight_filler {
      type: "msra"
    }
    bias_filler {
      type: "constant"
    }
    engine: CUDNN
  }
}

layer {
  name: "incept_5_1L_2b_relu1"
  type: "ReLU"
  bottom: "incept_5_1L_2b_1"
  top: "incept_5_1L_2b_1"
  relu_param{
  	negative_slope: 0.1
  }
}


layer {
  name: "incept_5_1L_2b_2"
  type: "Convolution"
  bottom: "incept_5_1L_2b_1"
  top: "incept_5_1L_2b_2"
  param {
    lr_mult: 1
    decay_mult: 1
  }
  param {
    lr_mult: 1
    decay_mult: 0
  }
  convolution_param {
    num_output: 64
    pad: 1
    kernel_size: 3
    stride: 1
    weight_filler {
      type: "msra"
    }
    bias_filler {
      type: "constant"
    }
    engine: CUDNN
  }
}

layer {
  name: "incept_5_1L_2b_relu2"
  type: "ReLU"
  bottom: "incept_5_1L_2b_2"
  top: "incept_5_1L_2b_2"
  relu_param{
  	negative_slope: 0.1
  }
}



layer {
  name: "incept_5_1L_3b_1"
  type: "Convolution"
  bottom: "conv1_5_1L"
  top: "incept_5_1L_3b_1"
  param {
    lr_mult: 1
    decay_mult: 1
  }
  param {
    lr_mult: 1
    decay_mult: 0
  }
  convolution_param {
    num_output: 16
    pad: 0
    kernel_size: 1
    stride: 1
    weight_filler {
      type: "msra"
    }
    bias_filler {
      type: "constant"
    }
    engine: CUDNN
  }
}

layer {
  name: "incept_5_1L_3b_relu1"
  type: "ReLU"
  bottom: "incept_5_1L_3b_1"
  top: "incept_5_1L_3b_1"
  relu_param{
  	negative_slope: 0.1
  }
}


layer {
  name: "incept_5_1L_3b_2"
  type: "Convolution"
  bottom: "incept_5_1L_3b_1"
  top: "incept_5_1L_3b_2"
  param {
    lr_mult: 1
    decay_mult: 1
  }
  param {
    lr_mult: 1
    decay_mult: 0
  }
  convolution_param {
    num_output: 32
    pad: 1
    kernel_size: 3
    stride: 1
    weight_filler {
      type: "msra"
    }
    bias_filler {
      type: "constant"
    }
    engine: CUDNN
  }
}

layer {
  name: "incept_5_1L_3b_relu2"
  type: "ReLU"
  bottom: "incept_5_1L_3b_2"
  top: "incept_5_1L_3b_2"
  relu_param{
  	negative_slope: 0.1
  }
}
layer {
  name: "incept_5_1L_3b_3"
  type: "Convolution"
  bottom: "incept_5_1L_3b_2"
  top: "incept_5_1L_3b_3"
  param {
    lr_mult: 1
    decay_mult: 1
  }
  param {
    lr_mult: 1
    decay_mult: 0
  }
  convolution_param {
    num_output: 48
    pad: 1
    kernel_size: 3
    stride: 1
    weight_filler {
      type: "msra"
    }
    bias_filler {
      type: "constant"
    }
    engine: CUDNN
  }
}

layer {
  name: "incept_5_1L_3b_relu3"
  type: "ReLU"
  bottom: "incept_5_1L_3b_3"
  top: "incept_5_1L_3b_3"
  relu_param{
  	negative_slope: 0.1
  }
}


layer {
  name: "incept_5_1L_4b_1"   
  type: "Pooling" 
  bottom: "conv1_5_1L" 
  top: "incept_5_1L_4b_1" 

  pooling_param {
    pool: MAX  
	pad: 1
    kernel_size: 3  
    stride: 1 
  }
}

layer {
  name: "incept_5_1L_4b_relu1"
  type: "ReLU"
  bottom: "incept_5_1L_4b_1"
  top: "incept_5_1L_4b_1"
  relu_param{
  	negative_slope: 0.1
  }
}

layer {
  name: "incept_5_1L_4b_2"
  type: "Convolution"
  bottom: "incept_5_1L_4b_1"
  top: "incept_5_1L_4b_2"
  param {
    lr_mult: 1
    decay_mult: 1
  }
  param {
    lr_mult: 1
    decay_mult: 0
  }
  convolution_param {
    num_output: 12
    pad: 0
    kernel_size: 1
    stride: 1
    weight_filler {
      type: "msra"
    }
    bias_filler {
      type: "constant"
    }
    engine: CUDNN
  }
}
layer {
  name: "incept_5_1L_4b_relu2"
  type: "ReLU"
  bottom: "incept_5_1L_4b_2"
  top: "incept_5_1L_4b_2"
  relu_param{
  	negative_slope: 0.1
  }
}
layer {
  name: "concat_5_1L"
  type: "Concat"
  bottom: "incept_5_1L_1b_1"
  bottom: "incept_5_1L_2b_2"
  bottom: "incept_5_1L_3b_3"
  bottom: "incept_5_1L_4b_2"
  top: "concat_5_1L"
}



layer {
  name: "conv2_5_1L"
  type: "Convolution"
  bottom: "concat_5_1L"
  top: "conv2_5_1L"
  param {
    lr_mult: 1
    decay_mult: 1
  }
  param {
    lr_mult: 1
    decay_mult: 0
  }
  convolution_param {
    num_output: 64
    pad: 0
    kernel_size: 1
    stride: 1
    weight_filler {
      type: "msra"
    }
    bias_filler {
      type: "constant"
    }
    engine: CUDNN
  }
}
layer {
  name: "relu2_5_1L"
  type: "ReLU"
  bottom: "conv2_5_1L"
  top: "conv2_5_1L"
  relu_param{
  	negative_slope: 0.1
  }
}
########## Dense Connection ###########
layer {
  name: "dense_connection_1_2_3_4_5_1L"
  type: "Concat"
  bottom: "conv2_1_1L"
  bottom: "conv2_2_1L"
  bottom: "conv2_3_1L"
  bottom: "conv2_4_1L"
  bottom: "conv2_5_1L"
  top: "dense_connection_1_2_3_4_5_1L"
}
#######################################
layer {
  name: "conv3_5_1L"
  type: "Convolution"
  bottom: "dense_connection_1_2_3_4_5_1L"
  top: "conv3_5_1L"
  param {
    lr_mult: 1
    decay_mult: 1
  }
  param {
    lr_mult: 1
    decay_mult: 0
  }
  convolution_param {
    num_output: 64
    pad: 1
    kernel_size: 3
    stride: 1
    weight_filler {
      type: "msra"
    }
    bias_filler {
      type: "constant"
    }
    engine: CUDNN
  }
}
layer {
  name: "relu3_5_1L"
  type: "ReLU"
  bottom: "conv3_5_1L"
  top: "conv3_5_1L"
  relu_param{
  	negative_slope: 0.1
  }
}

layer {
  name: "conv4_5_1L"
  type: "Convolution"
  bottom: "conv3_5_1L"
  top: "conv4_5_1L"
  param {
    lr_mult: 1
    decay_mult: 1
  }
  param {
    lr_mult: 1
    decay_mult: 0
  }
  convolution_param {
    num_output: 64
    pad: 1
    kernel_size: 3
    stride: 1
    weight_filler {
      type: "msra"
    }
    bias_filler {
      type: "constant"
    }
    engine: CUDNN
  }
}
layer {
  name: "relu4_5_1L"
  type: "ReLU"
  bottom: "conv4_5_1L"
  top: "conv4_5_1L"
  relu_param{
  	negative_slope: 0.1
  }
}
layer {
  name: "conv5_5_1L"
  type: "Convolution"
  bottom: "conv4_5_1L"
  top: "conv5_5_1L"
  param {
    lr_mult: 1
    decay_mult: 1
  }
  param {
    lr_mult: 1
    decay_mult: 0
  }
  convolution_param {
    num_output: 64
    pad: 1
    kernel_size: 3
    stride: 1
    weight_filler {
      type: "msra"
    }
    bias_filler {
      type: "constant"
    }
    engine: CUDNN
  }
}
layer {
  name: "relu5_5_1L"
  type: "ReLU"
  bottom: "conv5_5_1L"
  top: "conv5_5_1L"
  relu_param{
  	negative_slope: 0.1
  }
}

layer {
  name: "conv6_5_1L"
  type: "Convolution"
  bottom: "conv5_5_1L"
  top: "conv6_5_1L"
  param {
    lr_mult: 1
    decay_mult: 1
  }
  param {
    lr_mult: 1
    decay_mult: 0
  }
  convolution_param {
    num_output: 32
    pad: 1
    kernel_size: 3
    stride: 1
    weight_filler {
      type: "msra"
    }
    bias_filler {
      type: "constant"
    }
    engine: CUDNN
  }
}
layer {
  name: "relu6_5_1L"
  type: "ReLU"
  bottom: "conv6_5_1L"
  top: "conv6_5_1L"
  relu_param{
  	negative_slope: 0.1
  }
}
layer {
  name: "conv7_5_1L"
  type: "Convolution"
  bottom: "conv6_5_1L"
  top: "conv7_5_1L"
  param {
    lr_mult: 1
    decay_mult: 1
  }
  param {
    lr_mult: 1
    decay_mult: 0
  }
  convolution_param {
    num_output: 16
    pad: 1
    kernel_size: 3
    stride: 1
    weight_filler {
      type: "msra"
    }
    bias_filler {
      type: "constant"
    }
    engine: CUDNN
  }
}
layer {
  name: "relu7_5_1L"
  type: "ReLU"
  bottom: "conv7_5_1L"
  top: "conv7_5_1L"
  relu_param{
  	negative_slope: 0.1
  }
}

layer {
  name: "conv8_5_1L"
  type: "Convolution"
  bottom: "conv7_5_1L"
  top: "conv8_5_1L"
  param {
    lr_mult: 1
    decay_mult: 1
  }
  param {
    lr_mult: 1
    decay_mult: 0
  }
  convolution_param {
    num_output: 8
    pad: 1
    kernel_size: 3
    stride: 1
    weight_filler {
      type: "msra"
    }
    bias_filler {
      type: "constant"
    }
    engine: CUDNN
  }
}
layer {
  name: "relu8_5_1L"
  type: "ReLU"
  bottom: "conv8_5_1L"
  top: "conv8_5_1L"
  relu_param{
  	negative_slope: 0.1
  }
}
layer {
  name: "conv9_5_1L"
  type: "Convolution"
  bottom: "conv8_5_1L"
  top: "predict_res_flow_5_1L"
  param {
    lr_mult: 1
    decay_mult: 1
  }
  param {
    lr_mult: 1
    decay_mult: 0
  }
  convolution_param {
    num_output: 2
    pad: 3
    kernel_size: 7
    stride: 1
    weight_filler {
      type: "msra"
    }
    bias_filler {
      type: "constant"
    }
    engine: CUDNN
  }
}
layer {
	name: "predict_flow_5_1L"
	type: "Eltwise"
	bottom: "predict_flow_4_1L" 
	bottom: "predict_res_flow_5_1L"
	top: "predict_flow_5_1L"
	eltwise_param { operation: SUM }
}
layer {
  name: "scaled_flow_gt_5_1L"
  type: "Downsample"
  bottom: "scaled_flow_gt"
  bottom: "predict_flow_5_1L"
  top: "scaled_flow_gt_5_1L"
  propagate_down: false
  propagate_down: false
}
layer {
  name: "loss_5_1L"
  type: "L1Loss"
  bottom: "predict_flow_5_1L"
  bottom: "scaled_flow_gt_5_1L"
  top: "loss_5_1L"
  loss_weight: 0.32
  l1_loss_param {
    l2_per_location: true
  }
} 


layer {
  name: "scaled_flow_1Lto2L"
  type: "Deconvolution"
  bottom: "predict_flow_5_1L"
  top: "scaled_flow_1Lto2L"
  param { lr_mult: 0 decay_mult: 0 }
  convolution_param {
    num_output: 2
    group: 2
    pad: 1
    kernel_size: 4
    stride: 2
    weight_filler { type: "bilinear" }
    bias_term: false
    engine: CUDNN
  }
}

##### G2_1 #####
layer {
  name: "flow_1_2L"
  type: "Eltwise"
  bottom: "scaled_flow_1Lto2L"
  top: "flow_1_2L"
  eltwise_param {
    operation: SUM
    coeff: 1.25
  }
}
layer {
  name: "warped_1_2L"
  type: "Warp"
  bottom: "conv1_4_b"
  bottom: "flow_1_2L" 
  top: "warped_1_2L"
}
layer {
  name: "corr_1_2L"
  type: "Correlation"
  bottom: "conv0_4_b"  
  bottom: "warped_1_2L"
  top: "corr_1_2L"
  correlation_param {
    pad: 4
    kernel_size: 1
    max_displacement: 4
    stride_1: 1
    stride_2: 1
  }
}
layer {
  name: "corr_1_2L_relu"
  type: "ReLU"
  bottom: "corr_1_2L"
  top: "corr_1_2L"
  relu_param {
    negative_slope: 0.1
  }
}
layer {
  name: "corr_1_2L_concat"
  type: "Concat"
  bottom: "corr_1_2L"
  bottom: "conv0_4_b" 
  bottom: "scaled_flow_1Lto2L" 
  top: "corr_1_2L_concat"
  concat_param {
    axis: 1
  }
}

layer {
  name: "conv1_1_2L"
  type: "Convolution"
  bottom: "corr_1_2L_concat"
  top: "conv1_1_2L"
  param {
    lr_mult: 1
    decay_mult: 1
  }
  param {
    lr_mult: 1
    decay_mult: 0
  }
  convolution_param {
    num_output: 96
    pad: 1
    kernel_size: 3
    stride: 1
    weight_filler {
      type: "msra"
    }
    bias_filler {
      type: "constant"
    }
    engine: CUDNN
  }
}


layer {
  name: "relu1_1_2L"
  type: "ReLU"
  bottom: "conv1_1_2L"
  top: "conv1_1_2L"
  relu_param{
  	negative_slope: 0.1
  }
}


layer {
  name: "incept_1_2L_1b_1"
  type: "Convolution"
  bottom: "conv1_1_2L"
  top: "incept_1_2L_1b_1"
  param {
    lr_mult: 1
    decay_mult: 1
  }
  param {
    lr_mult: 1
    decay_mult: 0
  }
  convolution_param {
    num_output: 36
    pad: 0
    kernel_size: 1
    stride: 1
    weight_filler {
      type: "msra"
    }
    bias_filler {
      type: "constant"
    }
    engine: CUDNN
  }
}

layer {
  name: "incept_1_2L_1b_relu1"
  type: "ReLU"
  bottom: "incept_1_2L_1b_1"
  top: "incept_1_2L_1b_1"
  relu_param{
  	negative_slope: 0.1
  }
}

layer {
  name: "incept_1_2L_2b_1"
  type: "Convolution"
  bottom: "conv1_1_2L"
  top: "incept_1_2L_2b_1"
  param {
    lr_mult: 1
    decay_mult: 1
  }
  param {
    lr_mult: 1
    decay_mult: 0
  }
  convolution_param {
    num_output: 48
    pad: 0
    kernel_size: 1
    stride: 1
    weight_filler {
      type: "msra"
    }
    bias_filler {
      type: "constant"
    }
    engine: CUDNN
  }
}

layer {
  name: "incept_1_2L_2b_relu1"
  type: "ReLU"
  bottom: "incept_1_2L_2b_1"
  top: "incept_1_2L_2b_1"
  relu_param{
  	negative_slope: 0.1
  }
}


layer {
  name: "incept_1_2L_2b_2"
  type: "Convolution"
  bottom: "incept_1_2L_2b_1"
  top: "incept_1_2L_2b_2"
  param {
    lr_mult: 1
    decay_mult: 1
  }
  param {
    lr_mult: 1
    decay_mult: 0
  }
  convolution_param {
    num_output: 64
    pad: 1
    kernel_size: 3
    stride: 1
    weight_filler {
      type: "msra"
    }
    bias_filler {
      type: "constant"
    }
    engine: CUDNN
  }
}

layer {
  name: "incept_1_2L_2b_relu2"
  type: "ReLU"
  bottom: "incept_1_2L_2b_2"
  top: "incept_1_2L_2b_2"
  relu_param{
  	negative_slope: 0.1
  }
}



layer {
  name: "incept_1_2L_3b_1"
  type: "Convolution"
  bottom: "conv1_1_2L"
  top: "incept_1_2L_3b_1"
  param {
    lr_mult: 1
    decay_mult: 1
  }
  param {
    lr_mult: 1
    decay_mult: 0
  }
  convolution_param {
    num_output: 16
    pad: 0
    kernel_size: 1
    stride: 1
    weight_filler {
      type: "msra"
    }
    bias_filler {
      type: "constant"
    }
    engine: CUDNN
  }
}

layer {
  name: "incept_1_2L_3b_relu1"
  type: "ReLU"
  bottom: "incept_1_2L_3b_1"
  top: "incept_1_2L_3b_1"
  relu_param{
  	negative_slope: 0.1
  }
}


layer {
  name: "incept_1_2L_3b_2"
  type: "Convolution"
  bottom: "incept_1_2L_3b_1"
  top: "incept_1_2L_3b_2"
  param {
    lr_mult: 1
    decay_mult: 1
  }
  param {
    lr_mult: 1
    decay_mult: 0
  }
  convolution_param {
    num_output: 32
    pad: 1
    kernel_size: 3
    stride: 1
    weight_filler {
      type: "msra"
    }
    bias_filler {
      type: "constant"
    }
    engine: CUDNN
  }
}

layer {
  name: "incept_1_2L_3b_relu2"
  type: "ReLU"
  bottom: "incept_1_2L_3b_2"
  top: "incept_1_2L_3b_2"
  relu_param{
  	negative_slope: 0.1
  }
}
layer {
  name: "incept_1_2L_3b_3"
  type: "Convolution"
  bottom: "incept_1_2L_3b_2"
  top: "incept_1_2L_3b_3"
  param {
    lr_mult: 1
    decay_mult: 1
  }
  param {
    lr_mult: 1
    decay_mult: 0
  }
  convolution_param {
    num_output: 48
    pad: 1
    kernel_size: 3
    stride: 1
    weight_filler {
      type: "msra"
    }
    bias_filler {
      type: "constant"
    }
    engine: CUDNN
  }
}

layer {
  name: "incept_1_2L_3b_relu3"
  type: "ReLU"
  bottom: "incept_1_2L_3b_3"
  top: "incept_1_2L_3b_3"
  relu_param{
  	negative_slope: 0.1
  }
}


layer {
  name: "incept_1_2L_4b_1"   
  type: "Pooling" 
  bottom: "conv1_1_2L" 
  top: "incept_1_2L_4b_1" 

  pooling_param {
    pool: MAX  
	pad: 1
    kernel_size: 3  
    stride: 1 
  }
}

layer {
  name: "incept_1_2L_4b_relu1"
  type: "ReLU"
  bottom: "incept_1_2L_4b_1"
  top: "incept_1_2L_4b_1"
  relu_param{
  	negative_slope: 0.1
  }
}

layer {
  name: "incept_1_2L_4b_2"
  type: "Convolution"
  bottom: "incept_1_2L_4b_1"
  top: "incept_1_2L_4b_2"
  param {
    lr_mult: 1
    decay_mult: 1
  }
  param {
    lr_mult: 1
    decay_mult: 0
  }
  convolution_param {
    num_output: 12
    pad: 0
    kernel_size: 1
    stride: 1
    weight_filler {
      type: "msra"
    }
    bias_filler {
      type: "constant"
    }
    engine: CUDNN
  }
}
layer {
  name: "incept_1_2L_4b_relu2"
  type: "ReLU"
  bottom: "incept_1_2L_4b_2"
  top: "incept_1_2L_4b_2"
  relu_param{
  	negative_slope: 0.1
  }
}
layer {
  name: "concat_1_2L"
  type: "Concat"
  bottom: "incept_1_2L_1b_1"
  bottom: "incept_1_2L_2b_2"
  bottom: "incept_1_2L_3b_3"
  bottom: "incept_1_2L_4b_2"
  top: "concat_1_2L"
}



layer {
  name: "conv2_1_2L"
  type: "Convolution"
  bottom: "concat_1_2L"
  top: "conv2_1_2L"
  param {
    lr_mult: 1
    decay_mult: 1
  }
  param {
    lr_mult: 1
    decay_mult: 0
  }
  convolution_param {
    num_output: 64
    pad: 0
    kernel_size: 1
    stride: 1
    weight_filler {
      type: "msra"
    }
    bias_filler {
      type: "constant"
    }
    engine: CUDNN
  }
}
layer {
  name: "relu2_1_2L"
  type: "ReLU"
  bottom: "conv2_1_2L"
  top: "conv2_1_2L"
  relu_param{
  	negative_slope: 0.1
  }
}

layer {
  name: "conv3_1_2L"
  type: "Convolution"
  bottom: "conv2_1_2L"
  top: "conv3_1_2L"
  param {
    lr_mult: 1
    decay_mult: 1
  }
  param {
    lr_mult: 1
    decay_mult: 0
  }
  convolution_param {
    num_output: 64
    pad: 1
    kernel_size: 3
    stride: 1
    weight_filler {
      type: "msra"
    }
    bias_filler {
      type: "constant"
    }
    engine: CUDNN
  }
}
layer {
  name: "relu3_1_2L"
  type: "ReLU"
  bottom: "conv3_1_2L"
  top: "conv3_1_2L"
  relu_param{
  	negative_slope: 0.1
  }
}

layer {
  name: "conv4_1_2L"
  type: "Convolution"
  bottom: "conv3_1_2L"
  top: "conv4_1_2L"
  param {
    lr_mult: 1
    decay_mult: 1
  }
  param {
    lr_mult: 1
    decay_mult: 0
  }
  convolution_param {
    num_output: 64
    pad: 1
    kernel_size: 3
    stride: 1
    weight_filler {
      type: "msra"
    }
    bias_filler {
      type: "constant"
    }
    engine: CUDNN
  }
}
layer {
  name: "relu4_1_2L"
  type: "ReLU"
  bottom: "conv4_1_2L"
  top: "conv4_1_2L"
  relu_param{
  	negative_slope: 0.1
  }
}
layer {
  name: "conv5_1_2L"
  type: "Convolution"
  bottom: "conv4_1_2L"
  top: "conv5_1_2L"
  param {
    lr_mult: 1
    decay_mult: 1
  }
  param {
    lr_mult: 1
    decay_mult: 0
  }
  convolution_param {
    num_output: 64
    pad: 1
    kernel_size: 3
    stride: 1
    weight_filler {
      type: "msra"
    }
    bias_filler {
      type: "constant"
    }
    engine: CUDNN
  }
}
layer {
  name: "relu5_1_2L"
  type: "ReLU"
  bottom: "conv5_1_2L"
  top: "conv5_1_2L"
  relu_param{
  	negative_slope: 0.1
  }
}

layer {
  name: "conv6_1_2L"
  type: "Convolution"
  bottom: "conv5_1_2L"
  top: "conv6_1_2L"
  param {
    lr_mult: 1
    decay_mult: 1
  }
  param {
    lr_mult: 1
    decay_mult: 0
  }
  convolution_param {
    num_output: 32
    pad: 1
    kernel_size: 3
    stride: 1
    weight_filler {
      type: "msra"
    }
    bias_filler {
      type: "constant"
    }
    engine: CUDNN
  }
}
layer {
  name: "relu6_1_2L"
  type: "ReLU"
  bottom: "conv6_1_2L"
  top: "conv6_1_2L"
  relu_param{
  	negative_slope: 0.1
  }
}
layer {
  name: "conv7_1_2L"
  type: "Convolution"
  bottom: "conv6_1_2L"
  top: "conv7_1_2L"
  param {
    lr_mult: 1
    decay_mult: 1
  }
  param {
    lr_mult: 1
    decay_mult: 0
  }
  convolution_param {
    num_output: 16
    pad: 1
    kernel_size: 3
    stride: 1
    weight_filler {
      type: "msra"
    }
    bias_filler {
      type: "constant"
    }
    engine: CUDNN
  }
}
layer {
  name: "relu7_1_2L"
  type: "ReLU"
  bottom: "conv7_1_2L"
  top: "conv7_1_2L"
  relu_param{
  	negative_slope: 0.1
  }
}

layer {
  name: "conv8_1_2L"
  type: "Convolution"
  bottom: "conv7_1_2L"
  top: "conv8_1_2L"
  param {
    lr_mult: 1
    decay_mult: 1
  }
  param {
    lr_mult: 1
    decay_mult: 0
  }
  convolution_param {
    num_output: 8
    pad: 1
    kernel_size: 3
    stride: 1
    weight_filler {
      type: "msra"
    }
    bias_filler {
      type: "constant"
    }
    engine: CUDNN
  }
}
layer {
  name: "relu8_1_2L"
  type: "ReLU"
  bottom: "conv8_1_2L"
  top: "conv8_1_2L"
  relu_param{
  	negative_slope: 0.1
  }
}
layer {
  name: "conv9_1_2L"
  type: "Convolution"
  bottom: "conv8_1_2L"
  top: "predict_res_flow_1_2L"
  param {
    lr_mult: 1
    decay_mult: 1
  }
  param {
    lr_mult: 1
    decay_mult: 0
  }
  convolution_param {
    num_output: 2
    pad: 3
    kernel_size: 7
    stride: 1
    weight_filler {
      type: "msra"
    }
    bias_filler {
      type: "constant"
    }
    engine: CUDNN
  }
}
layer {
	name: "predict_flow_1_2L"
	type: "Eltwise"
	bottom: "scaled_flow_1Lto2L" 
	bottom: "predict_res_flow_1_2L"
	top: "predict_flow_1_2L"
	eltwise_param { operation: SUM }
}
layer {
  name: "scaled_flow_gt_1_2L"
  type: "Downsample"
  bottom: "scaled_flow_gt"
  bottom: "predict_flow_1_2L"
  top: "scaled_flow_gt_1_2L"
  propagate_down: false
  propagate_down: false
}
layer {
  name: "loss_1_2L"
  type: "L1Loss"
  bottom: "predict_flow_1_2L"
  bottom: "scaled_flow_gt_1_2L"
  top: "loss_1_2L"
  loss_weight: 0.08 
  l1_loss_param {
    l2_per_location: true
  }
} 


##### G2_2 #####
layer {
  name: "flow_2_2L"
  type: "Eltwise"
  bottom: "predict_flow_1_2L"
  top: "flow_2_2L"
  eltwise_param {
    operation: SUM
    coeff: 1.25
  }
}
layer {
  name: "warped_2_2L"
  type: "Warp"
  bottom: "conv1_4_b"  
  bottom: "flow_2_2L"  
  top: "warped_2_2L"
}
layer {
  name: "corr_2_2L"
  type: "Correlation"
  bottom: "conv0_4_b"  
  bottom: "warped_2_2L"
  top: "corr_2_2L"
  correlation_param {
    pad: 4
    kernel_size: 1
    max_displacement: 4
    stride_1: 1
    stride_2: 1
  }
}
layer {
  name: "corr_2_2L_relu"
  type: "ReLU"
  bottom: "corr_2_2L"
  top: "corr_2_2L"
  relu_param {
    negative_slope: 0.1
  }
}
layer {
  name: "corr_2_2L_concat"
  type: "Concat"
  bottom: "corr_2_2L"
  bottom: "conv0_4_b"  
  bottom: "predict_flow_1_2L" 
  top: "corr_2_2L_concat"
  concat_param {
    axis: 1
  }
}

layer {
  name: "conv1_2_2L"
  type: "Convolution"
  bottom: "corr_2_2L_concat"
  top: "conv1_2_2L"
  param {
    lr_mult: 1
    decay_mult: 1
  }
  param {
    lr_mult: 1
    decay_mult: 0
  }
  convolution_param {
    num_output: 96
    pad: 1
    kernel_size: 3
    stride: 1
    weight_filler {
      type: "msra"
    }
    bias_filler {
      type: "constant"
    }
    engine: CUDNN
  }
}


layer {
  name: "relu1_2_2L"
  type: "ReLU"
  bottom: "conv1_2_2L"
  top: "conv1_2_2L"
  relu_param{
  	negative_slope: 0.1
  }
}


layer {
  name: "incept_2_2L_1b_1"
  type: "Convolution"
  bottom: "conv1_2_2L"
  top: "incept_2_2L_1b_1"
  param {
    lr_mult: 1
    decay_mult: 1
  }
  param {
    lr_mult: 1
    decay_mult: 0
  }
  convolution_param {
    num_output: 36
    pad: 0
    kernel_size: 1
    stride: 1
    weight_filler {
      type: "msra"
    }
    bias_filler {
      type: "constant"
    }
    engine: CUDNN
  }
}

layer {
  name: "incept_2_2L_1b_relu1"
  type: "ReLU"
  bottom: "incept_2_2L_1b_1"
  top: "incept_2_2L_1b_1"
  relu_param{
  	negative_slope: 0.1
  }
}

layer {
  name: "incept_2_2L_2b_1"
  type: "Convolution"
  bottom: "conv1_2_2L"
  top: "incept_2_2L_2b_1"
  param {
    lr_mult: 1
    decay_mult: 1
  }
  param {
    lr_mult: 1
    decay_mult: 0
  }
  convolution_param {
    num_output: 48
    pad: 0
    kernel_size: 1
    stride: 1
    weight_filler {
      type: "msra"
    }
    bias_filler {
      type: "constant"
    }
    engine: CUDNN
  }
}

layer {
  name: "incept_2_2L_2b_relu1"
  type: "ReLU"
  bottom: "incept_2_2L_2b_1"
  top: "incept_2_2L_2b_1"
  relu_param{
  	negative_slope: 0.1
  }
}


layer {
  name: "incept_2_2L_2b_2"
  type: "Convolution"
  bottom: "incept_2_2L_2b_1"
  top: "incept_2_2L_2b_2"
  param {
    lr_mult: 1
    decay_mult: 1
  }
  param {
    lr_mult: 1
    decay_mult: 0
  }
  convolution_param {
    num_output: 64
    pad: 1
    kernel_size: 3
    stride: 1
    weight_filler {
      type: "msra"
    }
    bias_filler {
      type: "constant"
    }
    engine: CUDNN
  }
}

layer {
  name: "incept_2_2L_2b_relu2"
  type: "ReLU"
  bottom: "incept_2_2L_2b_2"
  top: "incept_2_2L_2b_2"
  relu_param{
  	negative_slope: 0.1
  }
}



layer {
  name: "incept_2_2L_3b_1"
  type: "Convolution"
  bottom: "conv1_2_2L"
  top: "incept_2_2L_3b_1"
  param {
    lr_mult: 1
    decay_mult: 1
  }
  param {
    lr_mult: 1
    decay_mult: 0
  }
  convolution_param {
    num_output: 16
    pad: 0
    kernel_size: 1
    stride: 1
    weight_filler {
      type: "msra"
    }
    bias_filler {
      type: "constant"
    }
    engine: CUDNN
  }
}

layer {
  name: "incept_2_2L_3b_relu1"
  type: "ReLU"
  bottom: "incept_2_2L_3b_1"
  top: "incept_2_2L_3b_1"
  relu_param{
  	negative_slope: 0.1
  }
}


layer {
  name: "incept_2_2L_3b_2"
  type: "Convolution"
  bottom: "incept_2_2L_3b_1"
  top: "incept_2_2L_3b_2"
  param {
    lr_mult: 1
    decay_mult: 1
  }
  param {
    lr_mult: 1
    decay_mult: 0
  }
  convolution_param {
    num_output: 32
    pad: 1
    kernel_size: 3
    stride: 1
    weight_filler {
      type: "msra"
    }
    bias_filler {
      type: "constant"
    }
    engine: CUDNN
  }
}

layer {
  name: "incept_2_2L_3b_relu2"
  type: "ReLU"
  bottom: "incept_2_2L_3b_2"
  top: "incept_2_2L_3b_2"
  relu_param{
  	negative_slope: 0.1
  }
}
layer {
  name: "incept_2_2L_3b_3"
  type: "Convolution"
  bottom: "incept_2_2L_3b_2"
  top: "incept_2_2L_3b_3"
  param {
    lr_mult: 1
    decay_mult: 1
  }
  param {
    lr_mult: 1
    decay_mult: 0
  }
  convolution_param {
    num_output: 48
    pad: 1
    kernel_size: 3
    stride: 1
    weight_filler {
      type: "msra"
    }
    bias_filler {
      type: "constant"
    }
    engine: CUDNN
  }
}

layer {
  name: "incept_2_2L_3b_relu3"
  type: "ReLU"
  bottom: "incept_2_2L_3b_3"
  top: "incept_2_2L_3b_3"
  relu_param{
  	negative_slope: 0.1
  }
}


layer {
  name: "incept_2_2L_4b_1"   
  type: "Pooling" 
  bottom: "conv1_2_2L" 
  top: "incept_2_2L_4b_1" 

  pooling_param {
    pool: MAX  
	pad: 1
    kernel_size: 3  
    stride: 1 
  }
}

layer {
  name: "incept_2_2L_4b_relu1"
  type: "ReLU"
  bottom: "incept_2_2L_4b_1"
  top: "incept_2_2L_4b_1"
  relu_param{
  	negative_slope: 0.1
  }
}

layer {
  name: "incept_2_2L_4b_2"
  type: "Convolution"
  bottom: "incept_2_2L_4b_1"
  top: "incept_2_2L_4b_2"
  param {
    lr_mult: 1
    decay_mult: 1
  }
  param {
    lr_mult: 1
    decay_mult: 0
  }
  convolution_param {
    num_output: 12
    pad: 0
    kernel_size: 1
    stride: 1
    weight_filler {
      type: "msra"
    }
    bias_filler {
      type: "constant"
    }
    engine: CUDNN
  }
}
layer {
  name: "incept_2_2L_4b_relu2"
  type: "ReLU"
  bottom: "incept_2_2L_4b_2"
  top: "incept_2_2L_4b_2"
  relu_param{
  	negative_slope: 0.1
  }
}
layer {
  name: "concat_2_2L"
  type: "Concat"
  bottom: "incept_2_2L_1b_1"
  bottom: "incept_2_2L_2b_2"
  bottom: "incept_2_2L_3b_3"
  bottom: "incept_2_2L_4b_2"
  top: "concat_2_2L"
}



layer {
  name: "conv2_2_2L"
  type: "Convolution"
  bottom: "concat_2_2L"
  top: "conv2_2_2L"
  param {
    lr_mult: 1
    decay_mult: 1
  }
  param {
    lr_mult: 1
    decay_mult: 0
  }
  convolution_param {
    num_output: 64
    pad: 0
    kernel_size: 1
    stride: 1
    weight_filler {
      type: "msra"
    }
    bias_filler {
      type: "constant"
    }
    engine: CUDNN
  }
}
layer {
  name: "relu2_2_2L"
  type: "ReLU"
  bottom: "conv2_2_2L"
  top: "conv2_2_2L"
  relu_param{
  	negative_slope: 0.1
  }
}
########## Dense Connection ###########
layer {
  name: "dense_connection_1_2_2L"
  type: "Concat"
  bottom: "conv2_1_2L"
  bottom: "conv2_2_2L"
  top: "dense_connection_1_2_2L"
}
#######################################
layer {
  name: "conv3_2_2L"
  type: "Convolution"
  bottom: "dense_connection_1_2_2L"
  top: "conv3_2_2L"
  param {
    lr_mult: 1
    decay_mult: 1
  }
  param {
    lr_mult: 1
    decay_mult: 0
  }
  convolution_param {
    num_output: 64
    pad: 1
    kernel_size: 3
    stride: 1
    weight_filler {
      type: "msra"
    }
    bias_filler {
      type: "constant"
    }
    engine: CUDNN
  }
}
layer {
  name: "relu3_2_2L"
  type: "ReLU"
  bottom: "conv3_2_2L"
  top: "conv3_2_2L"
  relu_param{
  	negative_slope: 0.1
  }
}

layer {
  name: "conv4_2_2L"
  type: "Convolution"
  bottom: "conv3_2_2L"
  top: "conv4_2_2L"
  param {
    lr_mult: 1
    decay_mult: 1
  }
  param {
    lr_mult: 1
    decay_mult: 0
  }
  convolution_param {
    num_output: 64
    pad: 1
    kernel_size: 3
    stride: 1
    weight_filler {
      type: "msra"
    }
    bias_filler {
      type: "constant"
    }
    engine: CUDNN
  }
}
layer {
  name: "relu4_2_2L"
  type: "ReLU"
  bottom: "conv4_2_2L"
  top: "conv4_2_2L"
  relu_param{
  	negative_slope: 0.1
  }
}
layer {
  name: "conv5_2_2L"
  type: "Convolution"
  bottom: "conv4_2_2L"
  top: "conv5_2_2L"
  param {
    lr_mult: 1
    decay_mult: 1
  }
  param {
    lr_mult: 1
    decay_mult: 0
  }
  convolution_param {
    num_output: 64
    pad: 1
    kernel_size: 3
    stride: 1
    weight_filler {
      type: "msra"
    }
    bias_filler {
      type: "constant"
    }
    engine: CUDNN
  }
}
layer {
  name: "relu5_2_2L"
  type: "ReLU"
  bottom: "conv5_2_2L"
  top: "conv5_2_2L"
  relu_param{
  	negative_slope: 0.1
  }
}

layer {
  name: "conv6_2_2L"
  type: "Convolution"
  bottom: "conv5_2_2L"
  top: "conv6_2_2L"
  param {
    lr_mult: 1
    decay_mult: 1
  }
  param {
    lr_mult: 1
    decay_mult: 0
  }
  convolution_param {
    num_output: 32
    pad: 1
    kernel_size: 3
    stride: 1
    weight_filler {
      type: "msra"
    }
    bias_filler {
      type: "constant"
    }
    engine: CUDNN
  }
}
layer {
  name: "relu6_2_2L"
  type: "ReLU"
  bottom: "conv6_2_2L"
  top: "conv6_2_2L"
  relu_param{
  	negative_slope: 0.1
  }
}
layer {
  name: "conv7_2_2L"
  type: "Convolution"
  bottom: "conv6_2_2L"
  top: "conv7_2_2L"
  param {
    lr_mult: 1
    decay_mult: 1
  }
  param {
    lr_mult: 1
    decay_mult: 0
  }
  convolution_param {
    num_output: 16
    pad: 1
    kernel_size: 3
    stride: 1
    weight_filler {
      type: "msra"
    }
    bias_filler {
      type: "constant"
    }
    engine: CUDNN
  }
}
layer {
  name: "relu7_2_2L"
  type: "ReLU"
  bottom: "conv7_2_2L"
  top: "conv7_2_2L"
  relu_param{
  	negative_slope: 0.1
  }
}

layer {
  name: "conv8_2_2L"
  type: "Convolution"
  bottom: "conv7_2_2L"
  top: "conv8_2_2L"
  param {
    lr_mult: 1
    decay_mult: 1
  }
  param {
    lr_mult: 1
    decay_mult: 0
  }
  convolution_param {
    num_output: 8
    pad: 1
    kernel_size: 3
    stride: 1
    weight_filler {
      type: "msra"
    }
    bias_filler {
      type: "constant"
    }
    engine: CUDNN
  }
}
layer {
  name: "relu8_2_2L"
  type: "ReLU"
  bottom: "conv8_2_2L"
  top: "conv8_2_2L"
  relu_param{
  	negative_slope: 0.1
  }
}
layer {
  name: "conv9_2_2L"
  type: "Convolution"
  bottom: "conv8_2_2L"
  top: "predict_res_flow_2_2L"
  param {
    lr_mult: 1
    decay_mult: 1
  }
  param {
    lr_mult: 1
    decay_mult: 0
  }
  convolution_param {
    num_output: 2
    pad: 3
    kernel_size: 7
    stride: 1
    weight_filler {
      type: "msra"
    }
    bias_filler {
      type: "constant"
    }
    engine: CUDNN
  }
}
layer {
	name: "predict_flow_2_2L"
	type: "Eltwise"
	bottom: "predict_flow_1_2L" 
	bottom: "predict_res_flow_2_2L"
	top: "predict_flow_2_2L"
	eltwise_param { operation: SUM }
}
layer {
  name: "scaled_flow_gt_2_2L"
  type: "Downsample"
  bottom: "scaled_flow_gt"
  bottom: "predict_flow_2_2L"
  top: "scaled_flow_gt_2_2L"
  propagate_down: false
  propagate_down: false
}
layer {
  name: "loss_2_2L"
  type: "L1Loss"
  bottom: "predict_flow_2_2L"
  bottom: "scaled_flow_gt_2_2L"
  top: "loss_2_2L"
  loss_weight: 0.08 
  l1_loss_param {
    l2_per_location: true
  }
} 

##### G2_3 #####
layer {
  name: "flow_3_2L"
  type: "Eltwise"
  bottom: "predict_flow_2_2L"
  top: "flow_3_2L"
  eltwise_param {
    operation: SUM
    coeff: 1.25
  }
}
layer {
  name: "warped_3_2L"
  type: "Warp"
  bottom: "conv1_4_b"  
  bottom: "flow_3_2L"  
  top: "warped_3_2L"
}
layer {
  name: "corr_3_2L"
  type: "Correlation"
  bottom: "conv0_4_b" 
  bottom: "warped_3_2L"
  top: "corr_3_2L"
  correlation_param {
    pad: 4
    kernel_size: 1
    max_displacement: 4
    stride_1: 1
    stride_2: 1
  }
}
layer {
  name: "corr_3_2L_relu"
  type: "ReLU"
  bottom: "corr_3_2L"
  top: "corr_3_2L"
  relu_param {
    negative_slope: 0.1
  }
}
layer {
  name: "corr_3_2L_concat"
  type: "Concat"
  bottom: "corr_3_2L"
  bottom: "conv0_4_b" 
  bottom: "predict_flow_2_2L" 
  top: "corr_3_2L_concat"
  concat_param {
    axis: 1
  }
}

layer {
  name: "conv1_3_2L"
  type: "Convolution"
  bottom: "corr_3_2L_concat"
  top: "conv1_3_2L"
  param {
    lr_mult: 1
    decay_mult: 1
  }
  param {
    lr_mult: 1
    decay_mult: 0
  }
  convolution_param {
    num_output: 96
    pad: 1
    kernel_size: 3
    stride: 1
    weight_filler {
      type: "msra"
    }
    bias_filler {
      type: "constant"
    }
    engine: CUDNN
  }
}


layer {
  name: "relu1_3_2L"
  type: "ReLU"
  bottom: "conv1_3_2L"
  top: "conv1_3_2L"
  relu_param{
  	negative_slope: 0.1
  }
}


layer {
  name: "incept_3_2L_1b_1"
  type: "Convolution"
  bottom: "conv1_3_2L"
  top: "incept_3_2L_1b_1"
  param {
    lr_mult: 1
    decay_mult: 1
  }
  param {
    lr_mult: 1
    decay_mult: 0
  }
  convolution_param {
    num_output: 36
    pad: 0
    kernel_size: 1
    stride: 1
    weight_filler {
      type: "msra"
    }
    bias_filler {
      type: "constant"
    }
    engine: CUDNN
  }
}

layer {
  name: "incept_3_2L_1b_relu1"
  type: "ReLU"
  bottom: "incept_3_2L_1b_1"
  top: "incept_3_2L_1b_1"
  relu_param{
  	negative_slope: 0.1
  }
}

layer {
  name: "incept_3_2L_2b_1"
  type: "Convolution"
  bottom: "conv1_3_2L"
  top: "incept_3_2L_2b_1"
  param {
    lr_mult: 1
    decay_mult: 1
  }
  param {
    lr_mult: 1
    decay_mult: 0
  }
  convolution_param {
    num_output: 48
    pad: 0
    kernel_size: 1
    stride: 1
    weight_filler {
      type: "msra"
    }
    bias_filler {
      type: "constant"
    }
    engine: CUDNN
  }
}

layer {
  name: "incept_3_2L_2b_relu1"
  type: "ReLU"
  bottom: "incept_3_2L_2b_1"
  top: "incept_3_2L_2b_1"
  relu_param{
  	negative_slope: 0.1
  }
}


layer {
  name: "incept_3_2L_2b_2"
  type: "Convolution"
  bottom: "incept_3_2L_2b_1"
  top: "incept_3_2L_2b_2"
  param {
    lr_mult: 1
    decay_mult: 1
  }
  param {
    lr_mult: 1
    decay_mult: 0
  }
  convolution_param {
    num_output: 64
    pad: 1
    kernel_size: 3
    stride: 1
    weight_filler {
      type: "msra"
    }
    bias_filler {
      type: "constant"
    }
    engine: CUDNN
  }
}

layer {
  name: "incept_3_2L_2b_relu2"
  type: "ReLU"
  bottom: "incept_3_2L_2b_2"
  top: "incept_3_2L_2b_2"
  relu_param{
  	negative_slope: 0.1
  }
}



layer {
  name: "incept_3_2L_3b_1"
  type: "Convolution"
  bottom: "conv1_3_2L"
  top: "incept_3_2L_3b_1"
  param {
    lr_mult: 1
    decay_mult: 1
  }
  param {
    lr_mult: 1
    decay_mult: 0
  }
  convolution_param {
    num_output: 16
    pad: 0
    kernel_size: 1
    stride: 1
    weight_filler {
      type: "msra"
    }
    bias_filler {
      type: "constant"
    }
    engine: CUDNN
  }
}

layer {
  name: "incept_3_2L_3b_relu1"
  type: "ReLU"
  bottom: "incept_3_2L_3b_1"
  top: "incept_3_2L_3b_1"
  relu_param{
  	negative_slope: 0.1
  }
}


layer {
  name: "incept_3_2L_3b_2"
  type: "Convolution"
  bottom: "incept_3_2L_3b_1"
  top: "incept_3_2L_3b_2"
  param {
    lr_mult: 1
    decay_mult: 1
  }
  param {
    lr_mult: 1
    decay_mult: 0
  }
  convolution_param {
    num_output: 32
    pad: 1
    kernel_size: 3
    stride: 1
    weight_filler {
      type: "msra"
    }
    bias_filler {
      type: "constant"
    }
    engine: CUDNN
  }
}

layer {
  name: "incept_3_2L_3b_relu2"
  type: "ReLU"
  bottom: "incept_3_2L_3b_2"
  top: "incept_3_2L_3b_2"
  relu_param{
  	negative_slope: 0.1
  }
}
layer {
  name: "incept_3_2L_3b_3"
  type: "Convolution"
  bottom: "incept_3_2L_3b_2"
  top: "incept_3_2L_3b_3"
  param {
    lr_mult: 1
    decay_mult: 1
  }
  param {
    lr_mult: 1
    decay_mult: 0
  }
  convolution_param {
    num_output: 48
    pad: 1
    kernel_size: 3
    stride: 1
    weight_filler {
      type: "msra"
    }
    bias_filler {
      type: "constant"
    }
    engine: CUDNN
  }
}

layer {
  name: "incept_3_2L_3b_relu3"
  type: "ReLU"
  bottom: "incept_3_2L_3b_3"
  top: "incept_3_2L_3b_3"
  relu_param{
  	negative_slope: 0.1
  }
}


layer {
  name: "incept_3_2L_4b_1"   
  type: "Pooling" 
  bottom: "conv1_3_2L" 
  top: "incept_3_2L_4b_1" 

  pooling_param {
    pool: MAX  
	pad: 1
    kernel_size: 3  
    stride: 1 
  }
}

layer {
  name: "incept_3_2L_4b_relu1"
  type: "ReLU"
  bottom: "incept_3_2L_4b_1"
  top: "incept_3_2L_4b_1"
  relu_param{
  	negative_slope: 0.1
  }
}

layer {
  name: "incept_3_2L_4b_2"
  type: "Convolution"
  bottom: "incept_3_2L_4b_1"
  top: "incept_3_2L_4b_2"
  param {
    lr_mult: 1
    decay_mult: 1
  }
  param {
    lr_mult: 1
    decay_mult: 0
  }
  convolution_param {
    num_output: 12
    pad: 0
    kernel_size: 1
    stride: 1
    weight_filler {
      type: "msra"
    }
    bias_filler {
      type: "constant"
    }
    engine: CUDNN
  }
}
layer {
  name: "incept_3_2L_4b_relu2"
  type: "ReLU"
  bottom: "incept_3_2L_4b_2"
  top: "incept_3_2L_4b_2"
  relu_param{
  	negative_slope: 0.1
  }
}
layer {
  name: "concat_3_2L"
  type: "Concat"
  bottom: "incept_3_2L_1b_1"
  bottom: "incept_3_2L_2b_2"
  bottom: "incept_3_2L_3b_3"
  bottom: "incept_3_2L_4b_2"
  top: "concat_3_2L"
}



layer {
  name: "conv2_3_2L"
  type: "Convolution"
  bottom: "concat_3_2L"
  top: "conv2_3_2L"
  param {
    lr_mult: 1
    decay_mult: 1
  }
  param {
    lr_mult: 1
    decay_mult: 0
  }
  convolution_param {
    num_output: 64
    pad: 0
    kernel_size: 1
    stride: 1
    weight_filler {
      type: "msra"
    }
    bias_filler {
      type: "constant"
    }
    engine: CUDNN
  }
}
layer {
  name: "relu2_3_2L"
  type: "ReLU"
  bottom: "conv2_3_2L"
  top: "conv2_3_2L"
  relu_param{
  	negative_slope: 0.1
  }
}
########## Dense Connection ###########
layer {
  name: "dense_connection_1_2_3_2L"
  type: "Concat"
  bottom: "conv2_1_2L"
  bottom: "conv2_2_2L"
  bottom: "conv2_3_2L"
  top: "dense_connection_1_2_3_2L"
}
#######################################
layer {
  name: "conv3_3_2L"
  type: "Convolution"
  bottom: "dense_connection_1_2_3_2L"
  top: "conv3_3_2L"
  param {
    lr_mult: 1
    decay_mult: 1
  }
  param {
    lr_mult: 1
    decay_mult: 0
  }
  convolution_param {
    num_output: 64
    pad: 1
    kernel_size: 3
    stride: 1
    weight_filler {
      type: "msra"
    }
    bias_filler {
      type: "constant"
    }
    engine: CUDNN
  }
}
layer {
  name: "relu3_3_2L"
  type: "ReLU"
  bottom: "conv3_3_2L"
  top: "conv3_3_2L"
  relu_param{
  	negative_slope: 0.1
  }
}

layer {
  name: "conv4_3_2L"
  type: "Convolution"
  bottom: "conv3_3_2L"
  top: "conv4_3_2L"
  param {
    lr_mult: 1
    decay_mult: 1
  }
  param {
    lr_mult: 1
    decay_mult: 0
  }
  convolution_param {
    num_output: 64
    pad: 1
    kernel_size: 3
    stride: 1
    weight_filler {
      type: "msra"
    }
    bias_filler {
      type: "constant"
    }
    engine: CUDNN
  }
}
layer {
  name: "relu4_3_2L"
  type: "ReLU"
  bottom: "conv4_3_2L"
  top: "conv4_3_2L"
  relu_param{
  	negative_slope: 0.1
  }
}
layer {
  name: "conv5_3_2L"
  type: "Convolution"
  bottom: "conv4_3_2L"
  top: "conv5_3_2L"
  param {
    lr_mult: 1
    decay_mult: 1
  }
  param {
    lr_mult: 1
    decay_mult: 0
  }
  convolution_param {
    num_output: 64
    pad: 1
    kernel_size: 3
    stride: 1
    weight_filler {
      type: "msra"
    }
    bias_filler {
      type: "constant"
    }
    engine: CUDNN
  }
}
layer {
  name: "relu5_3_2L"
  type: "ReLU"
  bottom: "conv5_3_2L"
  top: "conv5_3_2L"
  relu_param{
  	negative_slope: 0.1
  }
}

layer {
  name: "conv6_3_2L"
  type: "Convolution"
  bottom: "conv5_3_2L"
  top: "conv6_3_2L"
  param {
    lr_mult: 1
    decay_mult: 1
  }
  param {
    lr_mult: 1
    decay_mult: 0
  }
  convolution_param {
    num_output: 32
    pad: 1
    kernel_size: 3
    stride: 1
    weight_filler {
      type: "msra"
    }
    bias_filler {
      type: "constant"
    }
    engine: CUDNN
  }
}
layer {
  name: "relu6_3_2L"
  type: "ReLU"
  bottom: "conv6_3_2L"
  top: "conv6_3_2L"
  relu_param{
  	negative_slope: 0.1
  }
}
layer {
  name: "conv7_3_2L"
  type: "Convolution"
  bottom: "conv6_3_2L"
  top: "conv7_3_2L"
  param {
    lr_mult: 1
    decay_mult: 1
  }
  param {
    lr_mult: 1
    decay_mult: 0
  }
  convolution_param {
    num_output: 16
    pad: 1
    kernel_size: 3
    stride: 1
    weight_filler {
      type: "msra"
    }
    bias_filler {
      type: "constant"
    }
    engine: CUDNN
  }
}
layer {
  name: "relu7_3_2L"
  type: "ReLU"
  bottom: "conv7_3_2L"
  top: "conv7_3_2L"
  relu_param{
  	negative_slope: 0.1
  }
}

layer {
  name: "conv8_3_2L"
  type: "Convolution"
  bottom: "conv7_3_2L"
  top: "conv8_3_2L"
  param {
    lr_mult: 1
    decay_mult: 1
  }
  param {
    lr_mult: 1
    decay_mult: 0
  }
  convolution_param {
    num_output: 8
    pad: 1
    kernel_size: 3
    stride: 1
    weight_filler {
      type: "msra"
    }
    bias_filler {
      type: "constant"
    }
    engine: CUDNN
  }
}
layer {
  name: "relu8_3_2L"
  type: "ReLU"
  bottom: "conv8_3_2L"
  top: "conv8_3_2L"
  relu_param{
  	negative_slope: 0.1
  }
}
layer {
  name: "conv9_3_2L"
  type: "Convolution"
  bottom: "conv8_3_2L"
  top: "predict_res_flow_3_2L"
  param {
    lr_mult: 1
    decay_mult: 1
  }
  param {
    lr_mult: 1
    decay_mult: 0
  }
  convolution_param {
    num_output: 2
    pad: 3
    kernel_size: 7
    stride: 1
    weight_filler {
      type: "msra"
    }
    bias_filler {
      type: "constant"
    }
    engine: CUDNN
  }
}
layer {
	name: "predict_flow_3_2L"
	type: "Eltwise"
	bottom: "predict_flow_2_2L" 
	bottom: "predict_res_flow_3_2L"
	top: "predict_flow_3_2L"
	eltwise_param { operation: SUM }
}
layer {
  name: "scaled_flow_gt_3_2L"
  type: "Downsample"
  bottom: "scaled_flow_gt"
  bottom: "predict_flow_3_2L"
  top: "scaled_flow_gt_3_2L"
  propagate_down: false
  propagate_down: false
}
layer {
  name: "loss_3_2L"
  type: "L1Loss"
  bottom: "predict_flow_3_2L"
  bottom: "scaled_flow_gt_3_2L"
  top: "loss_3_2L"
  loss_weight: 0.08 
  l1_loss_param {
    l2_per_location: true
  }
} 

##### G2_4 #####
layer {
  name: "flow_4_2L"
  type: "Eltwise"
  bottom: "predict_flow_3_2L"
  top: "flow_4_2L"
  eltwise_param {
    operation: SUM
    coeff: 1.25
  }
}
layer {
  name: "warped_4_2L"
  type: "Warp"
  bottom: "conv1_4_b"  
  bottom: "flow_4_2L"  
  top: "warped_4_2L"
}
layer {
  name: "corr_4_2L"
  type: "Correlation"
  bottom: "conv0_4_b"  
  bottom: "warped_4_2L"
  top: "corr_4_2L"
  correlation_param {
    pad: 4
    kernel_size: 1
    max_displacement: 4
    stride_1: 1
    stride_2: 1
  }
}
layer {
  name: "corr_4_2L_relu"
  type: "ReLU"
  bottom: "corr_4_2L"
  top: "corr_4_2L"
  relu_param {
    negative_slope: 0.1
  }
}
layer {
  name: "corr_4_2L_concat"
  type: "Concat"
  bottom: "corr_4_2L"
  bottom: "conv0_4_b"  
  bottom: "predict_flow_3_2L" 
  top: "corr_4_2L_concat"
  concat_param {
    axis: 1
  }
}

layer {
  name: "conv1_4_2L"
  type: "Convolution"
  bottom: "corr_4_2L_concat"
  top: "conv1_4_2L"
  param {
    lr_mult: 1
    decay_mult: 1
  }
  param {
    lr_mult: 1
    decay_mult: 0
  }
  convolution_param {
    num_output: 96
    pad: 1
    kernel_size: 3
    stride: 1
    weight_filler {
      type: "msra"
    }
    bias_filler {
      type: "constant"
    }
    engine: CUDNN
  }
}


layer {
  name: "relu1_4_2L"
  type: "ReLU"
  bottom: "conv1_4_2L"
  top: "conv1_4_2L"
  relu_param{
  	negative_slope: 0.1
  }
}


layer {
  name: "incept_4_2L_1b_1"
  type: "Convolution"
  bottom: "conv1_4_2L"
  top: "incept_4_2L_1b_1"
  param {
    lr_mult: 1
    decay_mult: 1
  }
  param {
    lr_mult: 1
    decay_mult: 0
  }
  convolution_param {
    num_output: 36
    pad: 0
    kernel_size: 1
    stride: 1
    weight_filler {
      type: "msra"
    }
    bias_filler {
      type: "constant"
    }
    engine: CUDNN
  }
}

layer {
  name: "incept_4_2L_1b_relu1"
  type: "ReLU"
  bottom: "incept_4_2L_1b_1"
  top: "incept_4_2L_1b_1"
  relu_param{
  	negative_slope: 0.1
  }
}

layer {
  name: "incept_4_2L_2b_1"
  type: "Convolution"
  bottom: "conv1_4_2L"
  top: "incept_4_2L_2b_1"
  param {
    lr_mult: 1
    decay_mult: 1
  }
  param {
    lr_mult: 1
    decay_mult: 0
  }
  convolution_param {
    num_output: 48
    pad: 0
    kernel_size: 1
    stride: 1
    weight_filler {
      type: "msra"
    }
    bias_filler {
      type: "constant"
    }
    engine: CUDNN
  }
}

layer {
  name: "incept_4_2L_2b_relu1"
  type: "ReLU"
  bottom: "incept_4_2L_2b_1"
  top: "incept_4_2L_2b_1"
  relu_param{
  	negative_slope: 0.1
  }
}


layer {
  name: "incept_4_2L_2b_2"
  type: "Convolution"
  bottom: "incept_4_2L_2b_1"
  top: "incept_4_2L_2b_2"
  param {
    lr_mult: 1
    decay_mult: 1
  }
  param {
    lr_mult: 1
    decay_mult: 0
  }
  convolution_param {
    num_output: 64
    pad: 1
    kernel_size: 3
    stride: 1
    weight_filler {
      type: "msra"
    }
    bias_filler {
      type: "constant"
    }
    engine: CUDNN
  }
}

layer {
  name: "incept_4_2L_2b_relu2"
  type: "ReLU"
  bottom: "incept_4_2L_2b_2"
  top: "incept_4_2L_2b_2"
  relu_param{
  	negative_slope: 0.1
  }
}



layer {
  name: "incept_4_2L_3b_1"
  type: "Convolution"
  bottom: "conv1_4_2L"
  top: "incept_4_2L_3b_1"
  param {
    lr_mult: 1
    decay_mult: 1
  }
  param {
    lr_mult: 1
    decay_mult: 0
  }
  convolution_param {
    num_output: 16
    pad: 0
    kernel_size: 1
    stride: 1
    weight_filler {
      type: "msra"
    }
    bias_filler {
      type: "constant"
    }
    engine: CUDNN
  }
}

layer {
  name: "incept_4_2L_3b_relu1"
  type: "ReLU"
  bottom: "incept_4_2L_3b_1"
  top: "incept_4_2L_3b_1"
  relu_param{
  	negative_slope: 0.1
  }
}


layer {
  name: "incept_4_2L_3b_2"
  type: "Convolution"
  bottom: "incept_4_2L_3b_1"
  top: "incept_4_2L_3b_2"
  param {
    lr_mult: 1
    decay_mult: 1
  }
  param {
    lr_mult: 1
    decay_mult: 0
  }
  convolution_param {
    num_output: 32
    pad: 1
    kernel_size: 3
    stride: 1
    weight_filler {
      type: "msra"
    }
    bias_filler {
      type: "constant"
    }
    engine: CUDNN
  }
}

layer {
  name: "incept_4_2L_3b_relu2"
  type: "ReLU"
  bottom: "incept_4_2L_3b_2"
  top: "incept_4_2L_3b_2"
  relu_param{
  	negative_slope: 0.1
  }
}
layer {
  name: "incept_4_2L_3b_3"
  type: "Convolution"
  bottom: "incept_4_2L_3b_2"
  top: "incept_4_2L_3b_3"
  param {
    lr_mult: 1
    decay_mult: 1
  }
  param {
    lr_mult: 1
    decay_mult: 0
  }
  convolution_param {
    num_output: 48
    pad: 1
    kernel_size: 3
    stride: 1
    weight_filler {
      type: "msra"
    }
    bias_filler {
      type: "constant"
    }
    engine: CUDNN
  }
}

layer {
  name: "incept_4_2L_3b_relu3"
  type: "ReLU"
  bottom: "incept_4_2L_3b_3"
  top: "incept_4_2L_3b_3"
  relu_param{
  	negative_slope: 0.1
  }
}


layer {
  name: "incept_4_2L_4b_1"   
  type: "Pooling" 
  bottom: "conv1_4_2L" 
  top: "incept_4_2L_4b_1" 

  pooling_param {
    pool: MAX  
	pad: 1
    kernel_size: 3  
    stride: 1 
  }
}

layer {
  name: "incept_4_2L_4b_relu1"
  type: "ReLU"
  bottom: "incept_4_2L_4b_1"
  top: "incept_4_2L_4b_1"
  relu_param{
  	negative_slope: 0.1
  }
}

layer {
  name: "incept_4_2L_4b_2"
  type: "Convolution"
  bottom: "incept_4_2L_4b_1"
  top: "incept_4_2L_4b_2"
  param {
    lr_mult: 1
    decay_mult: 1
  }
  param {
    lr_mult: 1
    decay_mult: 0
  }
  convolution_param {
    num_output: 12
    pad: 0
    kernel_size: 1
    stride: 1
    weight_filler {
      type: "msra"
    }
    bias_filler {
      type: "constant"
    }
    engine: CUDNN
  }
}
layer {
  name: "incept_4_2L_4b_relu2"
  type: "ReLU"
  bottom: "incept_4_2L_4b_2"
  top: "incept_4_2L_4b_2"
  relu_param{
  	negative_slope: 0.1
  }
}
layer {
  name: "concat_4_2L"
  type: "Concat"
  bottom: "incept_4_2L_1b_1"
  bottom: "incept_4_2L_2b_2"
  bottom: "incept_4_2L_3b_3"
  bottom: "incept_4_2L_4b_2"
  top: "concat_4_2L"
}



layer {
  name: "conv2_4_2L"
  type: "Convolution"
  bottom: "concat_4_2L"
  top: "conv2_4_2L"
  param {
    lr_mult: 1
    decay_mult: 1
  }
  param {
    lr_mult: 1
    decay_mult: 0
  }
  convolution_param {
    num_output: 64
    pad: 0
    kernel_size: 1
    stride: 1
    weight_filler {
      type: "msra"
    }
    bias_filler {
      type: "constant"
    }
    engine: CUDNN
  }
}
layer {
  name: "relu2_4_2L"
  type: "ReLU"
  bottom: "conv2_4_2L"
  top: "conv2_4_2L"
  relu_param{
  	negative_slope: 0.1
  }
}
########## Dense Connection ###########
layer {
  name: "dense_connection_1_2_3_4_2L"
  type: "Concat"
  bottom: "conv2_1_2L"
  bottom: "conv2_2_2L"
  bottom: "conv2_3_2L"
  bottom: "conv2_4_2L"
  top: "dense_connection_1_2_3_4_2L"
}
#######################################
layer {
  name: "conv3_4_2L"
  type: "Convolution"
  bottom: "dense_connection_1_2_3_4_2L"
  top: "conv3_4_2L"
  param {
    lr_mult: 1
    decay_mult: 1
  }
  param {
    lr_mult: 1
    decay_mult: 0
  }
  convolution_param {
    num_output: 64
    pad: 1
    kernel_size: 3
    stride: 1
    weight_filler {
      type: "msra"
    }
    bias_filler {
      type: "constant"
    }
    engine: CUDNN
  }
}
layer {
  name: "relu3_4_2L"
  type: "ReLU"
  bottom: "conv3_4_2L"
  top: "conv3_4_2L"
  relu_param{
  	negative_slope: 0.1
  }
}

layer {
  name: "conv4_4_2L"
  type: "Convolution"
  bottom: "conv3_4_2L"
  top: "conv4_4_2L"
  param {
    lr_mult: 1
    decay_mult: 1
  }
  param {
    lr_mult: 1
    decay_mult: 0
  }
  convolution_param {
    num_output: 64
    pad: 1
    kernel_size: 3
    stride: 1
    weight_filler {
      type: "msra"
    }
    bias_filler {
      type: "constant"
    }
    engine: CUDNN
  }
}
layer {
  name: "relu4_4_2L"
  type: "ReLU"
  bottom: "conv4_4_2L"
  top: "conv4_4_2L"
  relu_param{
  	negative_slope: 0.1
  }
}
layer {
  name: "conv5_4_2L"
  type: "Convolution"
  bottom: "conv4_4_2L"
  top: "conv5_4_2L"
  param {
    lr_mult: 1
    decay_mult: 1
  }
  param {
    lr_mult: 1
    decay_mult: 0
  }
  convolution_param {
    num_output: 64
    pad: 1
    kernel_size: 3
    stride: 1
    weight_filler {
      type: "msra"
    }
    bias_filler {
      type: "constant"
    }
    engine: CUDNN
  }
}
layer {
  name: "relu5_4_2L"
  type: "ReLU"
  bottom: "conv5_4_2L"
  top: "conv5_4_2L"
  relu_param{
  	negative_slope: 0.1
  }
}

layer {
  name: "conv6_4_2L"
  type: "Convolution"
  bottom: "conv5_4_2L"
  top: "conv6_4_2L"
  param {
    lr_mult: 1
    decay_mult: 1
  }
  param {
    lr_mult: 1
    decay_mult: 0
  }
  convolution_param {
    num_output: 32
    pad: 1
    kernel_size: 3
    stride: 1
    weight_filler {
      type: "msra"
    }
    bias_filler {
      type: "constant"
    }
    engine: CUDNN
  }
}
layer {
  name: "relu6_4_2L"
  type: "ReLU"
  bottom: "conv6_4_2L"
  top: "conv6_4_2L"
  relu_param{
  	negative_slope: 0.1
  }
}
layer {
  name: "conv7_4_2L"
  type: "Convolution"
  bottom: "conv6_4_2L"
  top: "conv7_4_2L"
  param {
    lr_mult: 1
    decay_mult: 1
  }
  param {
    lr_mult: 1
    decay_mult: 0
  }
  convolution_param {
    num_output: 16
    pad: 1
    kernel_size: 3
    stride: 1
    weight_filler {
      type: "msra"
    }
    bias_filler {
      type: "constant"
    }
    engine: CUDNN
  }
}
layer {
  name: "relu7_4_2L"
  type: "ReLU"
  bottom: "conv7_4_2L"
  top: "conv7_4_2L"
  relu_param{
  	negative_slope: 0.1
  }
}

layer {
  name: "conv8_4_2L"
  type: "Convolution"
  bottom: "conv7_4_2L"
  top: "conv8_4_2L"
  param {
    lr_mult: 1
    decay_mult: 1
  }
  param {
    lr_mult: 1
    decay_mult: 0
  }
  convolution_param {
    num_output: 8
    pad: 1
    kernel_size: 3
    stride: 1
    weight_filler {
      type: "msra"
    }
    bias_filler {
      type: "constant"
    }
    engine: CUDNN
  }
}
layer {
  name: "relu8_4_2L"
  type: "ReLU"
  bottom: "conv8_4_2L"
  top: "conv8_4_2L"
  relu_param{
  	negative_slope: 0.1
  }
}
layer {
  name: "conv9_4_2L"
  type: "Convolution"
  bottom: "conv8_4_2L"
  top: "predict_res_flow_4_2L"
  param {
    lr_mult: 1
    decay_mult: 1
  }
  param {
    lr_mult: 1
    decay_mult: 0
  }
  convolution_param {
    num_output: 2
    pad: 3
    kernel_size: 7
    stride: 1
    weight_filler {
      type: "msra"
    }
    bias_filler {
      type: "constant"
    }
    engine: CUDNN
  }
}
layer {
	name: "predict_flow_4_2L"
	type: "Eltwise"
	bottom: "predict_flow_3_2L" 
	bottom: "predict_res_flow_4_2L"
	top: "predict_flow_4_2L"
	eltwise_param { operation: SUM }
}
layer {
  name: "scaled_flow_gt_4_2L"
  type: "Downsample"
  bottom: "scaled_flow_gt"
  bottom: "predict_flow_4_2L"
  top: "scaled_flow_gt_4_2L"
  propagate_down: false
  propagate_down: false
}
layer {
  name: "loss_4_2L"
  type: "L1Loss"
  bottom: "predict_flow_4_2L"
  bottom: "scaled_flow_gt_4_2L"
  top: "loss_4_2L"
  loss_weight: 0.08 
  l1_loss_param {
    l2_per_location: true
  }
} 

layer {
  name: "scaled_flow_2Lto3L"
  type: "Deconvolution"
  bottom: "predict_flow_4_2L"
  top: "scaled_flow_2Lto3L"
  param { lr_mult: 0 decay_mult: 0 }
  convolution_param {
    num_output: 2
    group: 2
    pad: 1
    kernel_size: 4
    stride: 2
    weight_filler { type: "bilinear" }
    bias_term: false
    engine: CUDNN
  }
}


##### G3_1 #####
layer {
  name: "flow_1_3L"
  type: "Eltwise"
  bottom: "scaled_flow_2Lto3L"
  top: "flow_1_3L"
  eltwise_param {
    operation: SUM
    coeff: 2.5
  }
}
layer {
  name: "warped_1_3L"
  type: "Warp"
  bottom: "conv1_3_b"  
  bottom: "flow_1_3L"  
  top: "warped_1_3L"
}
layer {
  name: "corr_1_3L"
  type: "Correlation"
  bottom: "conv0_3_b" 
  bottom: "warped_1_3L"
  top: "corr_1_3L"
  correlation_param {
    pad: 4
    kernel_size: 1
    max_displacement: 4
    stride_1: 1
    stride_2: 1
  }
}
layer {
  name: "corr_1_3L_relu"
  type: "ReLU"
  bottom: "corr_1_3L"
  top: "corr_1_3L"
  relu_param {
    negative_slope: 0.1
  }
}
layer {
  name: "corr_1_3L_concat"
  type: "Concat"
  bottom: "corr_1_3L"
  bottom: "conv0_3_b"  
  bottom: "scaled_flow_2Lto3L" 
  top: "corr_1_3L_concat"
  concat_param {
    axis: 1
  }
}

layer {
  name: "conv1_1_3L"
  type: "Convolution"
  bottom: "corr_1_3L_concat"
  top: "conv1_1_3L"
  param {
    lr_mult: 1
    decay_mult: 1
  }
  param {
    lr_mult: 1
    decay_mult: 0
  }
  convolution_param {
    num_output: 96
    pad: 1
    kernel_size: 3
    stride: 1
    weight_filler {
      type: "msra"
    }
    bias_filler {
      type: "constant"
    }
    engine: CUDNN
  }
}


layer {
  name: "relu1_1_3L"
  type: "ReLU"
  bottom: "conv1_1_3L"
  top: "conv1_1_3L"
  relu_param{
  	negative_slope: 0.1
  }
}


layer {
  name: "incept_1_3L_1b_1"
  type: "Convolution"
  bottom: "conv1_1_3L"
  top: "incept_1_3L_1b_1"
  param {
    lr_mult: 1
    decay_mult: 1
  }
  param {
    lr_mult: 1
    decay_mult: 0
  }
  convolution_param {
    num_output: 36
    pad: 0
    kernel_size: 1
    stride: 1
    weight_filler {
      type: "msra"
    }
    bias_filler {
      type: "constant"
    }
    engine: CUDNN
  }
}

layer {
  name: "incept_1_3L_1b_relu1"
  type: "ReLU"
  bottom: "incept_1_3L_1b_1"
  top: "incept_1_3L_1b_1"
  relu_param{
  	negative_slope: 0.1
  }
}

layer {
  name: "incept_1_3L_2b_1"
  type: "Convolution"
  bottom: "conv1_1_3L"
  top: "incept_1_3L_2b_1"
  param {
    lr_mult: 1
    decay_mult: 1
  }
  param {
    lr_mult: 1
    decay_mult: 0
  }
  convolution_param {
    num_output: 48
    pad: 0
    kernel_size: 1
    stride: 1
    weight_filler {
      type: "msra"
    }
    bias_filler {
      type: "constant"
    }
    engine: CUDNN
  }
}

layer {
  name: "incept_1_3L_2b_relu1"
  type: "ReLU"
  bottom: "incept_1_3L_2b_1"
  top: "incept_1_3L_2b_1"
  relu_param{
  	negative_slope: 0.1
  }
}


layer {
  name: "incept_1_3L_2b_2"
  type: "Convolution"
  bottom: "incept_1_3L_2b_1"
  top: "incept_1_3L_2b_2"
  param {
    lr_mult: 1
    decay_mult: 1
  }
  param {
    lr_mult: 1
    decay_mult: 0
  }
  convolution_param {
    num_output: 64
    pad: 1
    kernel_size: 3
    stride: 1
    weight_filler {
      type: "msra"
    }
    bias_filler {
      type: "constant"
    }
    engine: CUDNN
  }
}

layer {
  name: "incept_1_3L_2b_relu2"
  type: "ReLU"
  bottom: "incept_1_3L_2b_2"
  top: "incept_1_3L_2b_2"
  relu_param{
  	negative_slope: 0.1
  }
}



layer {
  name: "incept_1_3L_3b_1"
  type: "Convolution"
  bottom: "conv1_1_3L"
  top: "incept_1_3L_3b_1"
  param {
    lr_mult: 1
    decay_mult: 1
  }
  param {
    lr_mult: 1
    decay_mult: 0
  }
  convolution_param {
    num_output: 16
    pad: 0
    kernel_size: 1
    stride: 1
    weight_filler {
      type: "msra"
    }
    bias_filler {
      type: "constant"
    }
    engine: CUDNN
  }
}

layer {
  name: "incept_1_3L_3b_relu1"
  type: "ReLU"
  bottom: "incept_1_3L_3b_1"
  top: "incept_1_3L_3b_1"
  relu_param{
  	negative_slope: 0.1
  }
}


layer {
  name: "incept_1_3L_3b_2"
  type: "Convolution"
  bottom: "incept_1_3L_3b_1"
  top: "incept_1_3L_3b_2"
  param {
    lr_mult: 1
    decay_mult: 1
  }
  param {
    lr_mult: 1
    decay_mult: 0
  }
  convolution_param {
    num_output: 32
    pad: 1
    kernel_size: 3
    stride: 1
    weight_filler {
      type: "msra"
    }
    bias_filler {
      type: "constant"
    }
    engine: CUDNN
  }
}

layer {
  name: "incept_1_3L_3b_relu2"
  type: "ReLU"
  bottom: "incept_1_3L_3b_2"
  top: "incept_1_3L_3b_2"
  relu_param{
  	negative_slope: 0.1
  }
}
layer {
  name: "incept_1_3L_3b_3"
  type: "Convolution"
  bottom: "incept_1_3L_3b_2"
  top: "incept_1_3L_3b_3"
  param {
    lr_mult: 1
    decay_mult: 1
  }
  param {
    lr_mult: 1
    decay_mult: 0
  }
  convolution_param {
    num_output: 48
    pad: 1
    kernel_size: 3
    stride: 1
    weight_filler {
      type: "msra"
    }
    bias_filler {
      type: "constant"
    }
    engine: CUDNN
  }
}

layer {
  name: "incept_1_3L_3b_relu3"
  type: "ReLU"
  bottom: "incept_1_3L_3b_3"
  top: "incept_1_3L_3b_3"
  relu_param{
  	negative_slope: 0.1
  }
}


layer {
  name: "incept_1_3L_4b_1"   
  type: "Pooling" 
  bottom: "conv1_1_3L" 
  top: "incept_1_3L_4b_1" 

  pooling_param {
    pool: MAX  
	pad: 1
    kernel_size: 3  
    stride: 1 
  }
}

layer {
  name: "incept_1_3L_4b_relu1"
  type: "ReLU"
  bottom: "incept_1_3L_4b_1"
  top: "incept_1_3L_4b_1"
  relu_param{
  	negative_slope: 0.1
  }
}

layer {
  name: "incept_1_3L_4b_2"
  type: "Convolution"
  bottom: "incept_1_3L_4b_1"
  top: "incept_1_3L_4b_2"
  param {
    lr_mult: 1
    decay_mult: 1
  }
  param {
    lr_mult: 1
    decay_mult: 0
  }
  convolution_param {
    num_output: 12
    pad: 0
    kernel_size: 1
    stride: 1
    weight_filler {
      type: "msra"
    }
    bias_filler {
      type: "constant"
    }
    engine: CUDNN
  }
}
layer {
  name: "incept_1_3L_4b_relu2"
  type: "ReLU"
  bottom: "incept_1_3L_4b_2"
  top: "incept_1_3L_4b_2"
  relu_param{
  	negative_slope: 0.1
  }
}
layer {
  name: "concat_1_3L"
  type: "Concat"
  bottom: "incept_1_3L_1b_1"
  bottom: "incept_1_3L_2b_2"
  bottom: "incept_1_3L_3b_3"
  bottom: "incept_1_3L_4b_2"
  top: "concat_1_3L"
}



layer {
  name: "conv2_1_3L"
  type: "Convolution"
  bottom: "concat_1_3L"
  top: "conv2_1_3L"
  param {
    lr_mult: 1
    decay_mult: 1
  }
  param {
    lr_mult: 1
    decay_mult: 0
  }
  convolution_param {
    num_output: 64
    pad: 0
    kernel_size: 1
    stride: 1
    weight_filler {
      type: "msra"
    }
    bias_filler {
      type: "constant"
    }
    engine: CUDNN
  }
}
layer {
  name: "relu2_1_3L"
  type: "ReLU"
  bottom: "conv2_1_3L"
  top: "conv2_1_3L"
  relu_param{
  	negative_slope: 0.1
  }
}
layer {
  name: "conv3_1_3L"
  type: "Convolution"
  bottom: "conv2_1_3L"
  top: "conv3_1_3L"
  param {
    lr_mult: 1
    decay_mult: 1
  }
  param {
    lr_mult: 1
    decay_mult: 0
  }
  convolution_param {
    num_output: 64
    pad: 1
    kernel_size: 3
    stride: 1
    weight_filler {
      type: "msra"
    }
    bias_filler {
      type: "constant"
    }
    engine: CUDNN
  }
}
layer {
  name: "relu3_1_3L"
  type: "ReLU"
  bottom: "conv3_1_3L"
  top: "conv3_1_3L"
  relu_param{
  	negative_slope: 0.1
  }
}

layer {
  name: "conv4_1_3L"
  type: "Convolution"
  bottom: "conv3_1_3L"
  top: "conv4_1_3L"
  param {
    lr_mult: 1
    decay_mult: 1
  }
  param {
    lr_mult: 1
    decay_mult: 0
  }
  convolution_param {
    num_output: 64
    pad: 1
    kernel_size: 3
    stride: 1
    weight_filler {
      type: "msra"
    }
    bias_filler {
      type: "constant"
    }
    engine: CUDNN
  }
}
layer {
  name: "relu4_1_3L"
  type: "ReLU"
  bottom: "conv4_1_3L"
  top: "conv4_1_3L"
  relu_param{
  	negative_slope: 0.1
  }
}
layer {
  name: "conv5_1_3L"
  type: "Convolution"
  bottom: "conv4_1_3L"
  top: "conv5_1_3L"
  param {
    lr_mult: 1
    decay_mult: 1
  }
  param {
    lr_mult: 1
    decay_mult: 0
  }
  convolution_param {
    num_output: 64
    pad: 1
    kernel_size: 3
    stride: 1
    weight_filler {
      type: "msra"
    }
    bias_filler {
      type: "constant"
    }
    engine: CUDNN
  }
}
layer {
  name: "relu5_1_3L"
  type: "ReLU"
  bottom: "conv5_1_3L"
  top: "conv5_1_3L"
  relu_param{
  	negative_slope: 0.1
  }
}

layer {
  name: "conv6_1_3L"
  type: "Convolution"
  bottom: "conv5_1_3L"
  top: "conv6_1_3L"
  param {
    lr_mult: 1
    decay_mult: 1
  }
  param {
    lr_mult: 1
    decay_mult: 0
  }
  convolution_param {
    num_output: 32
    pad: 1
    kernel_size: 3
    stride: 1
    weight_filler {
      type: "msra"
    }
    bias_filler {
      type: "constant"
    }
    engine: CUDNN
  }
}
layer {
  name: "relu6_1_3L"
  type: "ReLU"
  bottom: "conv6_1_3L"
  top: "conv6_1_3L"
  relu_param{
  	negative_slope: 0.1
  }
}
layer {
  name: "conv7_1_3L"
  type: "Convolution"
  bottom: "conv6_1_3L"
  top: "conv7_1_3L"
  param {
    lr_mult: 1
    decay_mult: 1
  }
  param {
    lr_mult: 1
    decay_mult: 0
  }
  convolution_param {
    num_output: 16
    pad: 1
    kernel_size: 3
    stride: 1
    weight_filler {
      type: "msra"
    }
    bias_filler {
      type: "constant"
    }
    engine: CUDNN
  }
}
layer {
  name: "relu7_1_3L"
  type: "ReLU"
  bottom: "conv7_1_3L"
  top: "conv7_1_3L"
  relu_param{
  	negative_slope: 0.1
  }
}

layer {
  name: "conv8_1_3L"
  type: "Convolution"
  bottom: "conv7_1_3L"
  top: "conv8_1_3L"
  param {
    lr_mult: 1
    decay_mult: 1
  }
  param {
    lr_mult: 1
    decay_mult: 0
  }
  convolution_param {
    num_output: 8
    pad: 1
    kernel_size: 3
    stride: 1
    weight_filler {
      type: "msra"
    }
    bias_filler {
      type: "constant"
    }
    engine: CUDNN
  }
}
layer {
  name: "relu8_1_3L"
  type: "ReLU"
  bottom: "conv8_1_3L"
  top: "conv8_1_3L"
  relu_param{
  	negative_slope: 0.1
  }
}
layer {
  name: "conv9_1_3L"
  type: "Convolution"
  bottom: "conv8_1_3L"
  top: "predict_res_flow_1_3L"
  param {
    lr_mult: 1
    decay_mult: 1
  }
  param {
    lr_mult: 1
    decay_mult: 0
  }
  convolution_param {
    num_output: 2
    pad: 3
    kernel_size: 7
    stride: 1
    weight_filler {
      type: "msra"
    }
    bias_filler {
      type: "constant"
    }
    engine: CUDNN
  }
}
layer {
	name: "predict_flow_1_3L"
	type: "Eltwise"
	bottom: "scaled_flow_2Lto3L" 
	bottom: "predict_res_flow_1_3L"
	top: "predict_flow_1_3L"
	eltwise_param { operation: SUM }
}
layer {
  name: "scaled_flow_gt_1_3L"
  type: "Downsample"
  bottom: "scaled_flow_gt"
  bottom: "predict_flow_1_3L"
  top: "scaled_flow_gt_1_3L"
  propagate_down: false
  propagate_down: false
}
layer {
  name: "loss_1_3L"
  type: "L1Loss"
  bottom: "predict_flow_1_3L"
  bottom: "scaled_flow_gt_1_3L"
  top: "loss_1_3L"
  loss_weight: 0.02 
  l1_loss_param {
    l2_per_location: true
  }
} 


##### G3_2 #####
layer {
  name: "flow_2_3L"
  type: "Eltwise"
  bottom: "predict_flow_1_3L"
  top: "flow_2_3L"
  eltwise_param {
    operation: SUM
    coeff: 2.5
  }
}
layer {
  name: "warped_2_3L"
  type: "Warp"
  bottom: "conv1_3_b"  
  bottom: "flow_2_3L" 
  top: "warped_2_3L"
}
layer {
  name: "corr_2_3L"
  type: "Correlation"
  bottom: "conv0_3_b"  
  bottom: "warped_2_3L"
  top: "corr_2_3L"
  correlation_param {
    pad: 4
    kernel_size: 1
    max_displacement: 4
    stride_1: 1
    stride_2: 1
  }
}
layer {
  name: "corr_2_3L_relu"
  type: "ReLU"
  bottom: "corr_2_3L"
  top: "corr_2_3L"
  relu_param {
    negative_slope: 0.1
  }
}
layer {
  name: "corr_2_3L_concat"
  type: "Concat"
  bottom: "corr_2_3L"
  bottom: "conv0_3_b" 
  bottom: "predict_flow_1_3L" 
  top: "corr_2_3L_concat"
  concat_param {
    axis: 1
  }
}

layer {
  name: "conv1_2_3L"
  type: "Convolution"
  bottom: "corr_2_3L_concat"
  top: "conv1_2_3L"
  param {
    lr_mult: 1
    decay_mult: 1
  }
  param {
    lr_mult: 1
    decay_mult: 0
  }
  convolution_param {
    num_output: 96
    pad: 1
    kernel_size: 3
    stride: 1
    weight_filler {
      type: "msra"
    }
    bias_filler {
      type: "constant"
    }
    engine: CUDNN
  }
}


layer {
  name: "relu1_2_3L"
  type: "ReLU"
  bottom: "conv1_2_3L"
  top: "conv1_2_3L"
  relu_param{
  	negative_slope: 0.1
  }
}


layer {
  name: "incept_2_3L_1b_1"
  type: "Convolution"
  bottom: "conv1_2_3L"
  top: "incept_2_3L_1b_1"
  param {
    lr_mult: 1
    decay_mult: 1
  }
  param {
    lr_mult: 1
    decay_mult: 0
  }
  convolution_param {
    num_output: 36
    pad: 0
    kernel_size: 1
    stride: 1
    weight_filler {
      type: "msra"
    }
    bias_filler {
      type: "constant"
    }
    engine: CUDNN
  }
}

layer {
  name: "incept_2_3L_1b_relu1"
  type: "ReLU"
  bottom: "incept_2_3L_1b_1"
  top: "incept_2_3L_1b_1"
  relu_param{
  	negative_slope: 0.1
  }
}

layer {
  name: "incept_2_3L_2b_1"
  type: "Convolution"
  bottom: "conv1_2_3L"
  top: "incept_2_3L_2b_1"
  param {
    lr_mult: 1
    decay_mult: 1
  }
  param {
    lr_mult: 1
    decay_mult: 0
  }
  convolution_param {
    num_output: 48
    pad: 0
    kernel_size: 1
    stride: 1
    weight_filler {
      type: "msra"
    }
    bias_filler {
      type: "constant"
    }
    engine: CUDNN
  }
}

layer {
  name: "incept_2_3L_2b_relu1"
  type: "ReLU"
  bottom: "incept_2_3L_2b_1"
  top: "incept_2_3L_2b_1"
  relu_param{
  	negative_slope: 0.1
  }
}


layer {
  name: "incept_2_3L_2b_2"
  type: "Convolution"
  bottom: "incept_2_3L_2b_1"
  top: "incept_2_3L_2b_2"
  param {
    lr_mult: 1
    decay_mult: 1
  }
  param {
    lr_mult: 1
    decay_mult: 0
  }
  convolution_param {
    num_output: 64
    pad: 1
    kernel_size: 3
    stride: 1
    weight_filler {
      type: "msra"
    }
    bias_filler {
      type: "constant"
    }
    engine: CUDNN
  }
}

layer {
  name: "incept_2_3L_2b_relu2"
  type: "ReLU"
  bottom: "incept_2_3L_2b_2"
  top: "incept_2_3L_2b_2"
  relu_param{
  	negative_slope: 0.1
  }
}



layer {
  name: "incept_2_3L_3b_1"
  type: "Convolution"
  bottom: "conv1_2_3L"
  top: "incept_2_3L_3b_1"
  param {
    lr_mult: 1
    decay_mult: 1
  }
  param {
    lr_mult: 1
    decay_mult: 0
  }
  convolution_param {
    num_output: 16
    pad: 0
    kernel_size: 1
    stride: 1
    weight_filler {
      type: "msra"
    }
    bias_filler {
      type: "constant"
    }
    engine: CUDNN
  }
}

layer {
  name: "incept_2_3L_3b_relu1"
  type: "ReLU"
  bottom: "incept_2_3L_3b_1"
  top: "incept_2_3L_3b_1"
  relu_param{
  	negative_slope: 0.1
  }
}


layer {
  name: "incept_2_3L_3b_2"
  type: "Convolution"
  bottom: "incept_2_3L_3b_1"
  top: "incept_2_3L_3b_2"
  param {
    lr_mult: 1
    decay_mult: 1
  }
  param {
    lr_mult: 1
    decay_mult: 0
  }
  convolution_param {
    num_output: 32
    pad: 1
    kernel_size: 3
    stride: 1
    weight_filler {
      type: "msra"
    }
    bias_filler {
      type: "constant"
    }
    engine: CUDNN
  }
}

layer {
  name: "incept_2_3L_3b_relu2"
  type: "ReLU"
  bottom: "incept_2_3L_3b_2"
  top: "incept_2_3L_3b_2"
  relu_param{
  	negative_slope: 0.1
  }
}
layer {
  name: "incept_2_3L_3b_3"
  type: "Convolution"
  bottom: "incept_2_3L_3b_2"
  top: "incept_2_3L_3b_3"
  param {
    lr_mult: 1
    decay_mult: 1
  }
  param {
    lr_mult: 1
    decay_mult: 0
  }
  convolution_param {
    num_output: 48
    pad: 1
    kernel_size: 3
    stride: 1
    weight_filler {
      type: "msra"
    }
    bias_filler {
      type: "constant"
    }
    engine: CUDNN
  }
}

layer {
  name: "incept_2_3L_3b_relu3"
  type: "ReLU"
  bottom: "incept_2_3L_3b_3"
  top: "incept_2_3L_3b_3"
  relu_param{
  	negative_slope: 0.1
  }
}


layer {
  name: "incept_2_3L_4b_1"   
  type: "Pooling" 
  bottom: "conv1_2_3L" 
  top: "incept_2_3L_4b_1" 

  pooling_param {
    pool: MAX  
	pad: 1
    kernel_size: 3  
    stride: 1 
  }
}

layer {
  name: "incept_2_3L_4b_relu1"
  type: "ReLU"
  bottom: "incept_2_3L_4b_1"
  top: "incept_2_3L_4b_1"
  relu_param{
  	negative_slope: 0.1
  }
}

layer {
  name: "incept_2_3L_4b_2"
  type: "Convolution"
  bottom: "incept_2_3L_4b_1"
  top: "incept_2_3L_4b_2"
  param {
    lr_mult: 1
    decay_mult: 1
  }
  param {
    lr_mult: 1
    decay_mult: 0
  }
  convolution_param {
    num_output: 12
    pad: 0
    kernel_size: 1
    stride: 1
    weight_filler {
      type: "msra"
    }
    bias_filler {
      type: "constant"
    }
    engine: CUDNN
  }
}
layer {
  name: "incept_2_3L_4b_relu2"
  type: "ReLU"
  bottom: "incept_2_3L_4b_2"
  top: "incept_2_3L_4b_2"
  relu_param{
  	negative_slope: 0.1
  }
}
layer {
  name: "concat_2_3L"
  type: "Concat"
  bottom: "incept_2_3L_1b_1"
  bottom: "incept_2_3L_2b_2"
  bottom: "incept_2_3L_3b_3"
  bottom: "incept_2_3L_4b_2"
  top: "concat_2_3L"
}



layer {
  name: "conv2_2_3L"
  type: "Convolution"
  bottom: "concat_2_3L"
  top: "conv2_2_3L"
  param {
    lr_mult: 1
    decay_mult: 1
  }
  param {
    lr_mult: 1
    decay_mult: 0
  }
  convolution_param {
    num_output: 64
    pad: 0
    kernel_size: 1
    stride: 1
    weight_filler {
      type: "msra"
    }
    bias_filler {
      type: "constant"
    }
    engine: CUDNN
  }
}
layer {
  name: "relu2_2_3L"
  type: "ReLU"
  bottom: "conv2_2_3L"
  top: "conv2_2_3L"
  relu_param{
  	negative_slope: 0.1
  }
}
########## Dense Connection ###########
layer {
  name: "dense_connection_1_2_3L"
  type: "Concat"
  bottom: "conv2_1_3L"
  bottom: "conv2_2_3L"
  top: "dense_connection_1_2_3L"
}
#######################################
layer {
  name: "conv3_2_3L"
  type: "Convolution"
  bottom: "dense_connection_1_2_3L"
  top: "conv3_2_3L"
  param {
    lr_mult: 1
    decay_mult: 1
  }
  param {
    lr_mult: 1
    decay_mult: 0
  }
  convolution_param {
    num_output: 64
    pad: 1
    kernel_size: 3
    stride: 1
    weight_filler {
      type: "msra"
    }
    bias_filler {
      type: "constant"
    }
    engine: CUDNN
  }
}
layer {
  name: "relu3_2_3L"
  type: "ReLU"
  bottom: "conv3_2_3L"
  top: "conv3_2_3L"
  relu_param{
  	negative_slope: 0.1
  }
}

layer {
  name: "conv4_2_3L"
  type: "Convolution"
  bottom: "conv3_2_3L"
  top: "conv4_2_3L"
  param {
    lr_mult: 1
    decay_mult: 1
  }
  param {
    lr_mult: 1
    decay_mult: 0
  }
  convolution_param {
    num_output: 64
    pad: 1
    kernel_size: 3
    stride: 1
    weight_filler {
      type: "msra"
    }
    bias_filler {
      type: "constant"
    }
    engine: CUDNN
  }
}
layer {
  name: "relu4_2_3L"
  type: "ReLU"
  bottom: "conv4_2_3L"
  top: "conv4_2_3L"
  relu_param{
  	negative_slope: 0.1
  }
}
layer {
  name: "conv5_2_3L"
  type: "Convolution"
  bottom: "conv4_2_3L"
  top: "conv5_2_3L"
  param {
    lr_mult: 1
    decay_mult: 1
  }
  param {
    lr_mult: 1
    decay_mult: 0
  }
  convolution_param {
    num_output: 64
    pad: 1
    kernel_size: 3
    stride: 1
    weight_filler {
      type: "msra"
    }
    bias_filler {
      type: "constant"
    }
    engine: CUDNN
  }
}
layer {
  name: "relu5_2_3L"
  type: "ReLU"
  bottom: "conv5_2_3L"
  top: "conv5_2_3L"
  relu_param{
  	negative_slope: 0.1
  }
}

layer {
  name: "conv6_2_3L"
  type: "Convolution"
  bottom: "conv5_2_3L"
  top: "conv6_2_3L"
  param {
    lr_mult: 1
    decay_mult: 1
  }
  param {
    lr_mult: 1
    decay_mult: 0
  }
  convolution_param {
    num_output: 32
    pad: 1
    kernel_size: 3
    stride: 1
    weight_filler {
      type: "msra"
    }
    bias_filler {
      type: "constant"
    }
    engine: CUDNN
  }
}
layer {
  name: "relu6_2_3L"
  type: "ReLU"
  bottom: "conv6_2_3L"
  top: "conv6_2_3L"
  relu_param{
  	negative_slope: 0.1
  }
}
layer {
  name: "conv7_2_3L"
  type: "Convolution"
  bottom: "conv6_2_3L"
  top: "conv7_2_3L"
  param {
    lr_mult: 1
    decay_mult: 1
  }
  param {
    lr_mult: 1
    decay_mult: 0
  }
  convolution_param {
    num_output: 16
    pad: 1
    kernel_size: 3
    stride: 1
    weight_filler {
      type: "msra"
    }
    bias_filler {
      type: "constant"
    }
    engine: CUDNN
  }
}
layer {
  name: "relu7_2_3L"
  type: "ReLU"
  bottom: "conv7_2_3L"
  top: "conv7_2_3L"
  relu_param{
  	negative_slope: 0.1
  }
}

layer {
  name: "conv8_2_3L"
  type: "Convolution"
  bottom: "conv7_2_3L"
  top: "conv8_2_3L"
  param {
    lr_mult: 1
    decay_mult: 1
  }
  param {
    lr_mult: 1
    decay_mult: 0
  }
  convolution_param {
    num_output: 8
    pad: 1
    kernel_size: 3
    stride: 1
    weight_filler {
      type: "msra"
    }
    bias_filler {
      type: "constant"
    }
    engine: CUDNN
  }
}
layer {
  name: "relu8_2_3L"
  type: "ReLU"
  bottom: "conv8_2_3L"
  top: "conv8_2_3L"
  relu_param{
  	negative_slope: 0.1
  }
}
layer {
  name: "conv9_2_3L"
  type: "Convolution"
  bottom: "conv8_2_3L"
  top: "predict_res_flow_2_3L"
  param {
    lr_mult: 1
    decay_mult: 1
  }
  param {
    lr_mult: 1
    decay_mult: 0
  }
  convolution_param {
    num_output: 2
    pad: 3
    kernel_size: 7
    stride: 1
    weight_filler {
      type: "msra"
    }
    bias_filler {
      type: "constant"
    }
    engine: CUDNN
  }
}
layer {
	name: "predict_flow_2_3L"
	type: "Eltwise"
	bottom: "predict_flow_1_3L" 
	bottom: "predict_res_flow_2_3L"
	top: "predict_flow_2_3L"
	eltwise_param { operation: SUM }
}
layer {
  name: "scaled_flow_gt_2_3L"
  type: "Downsample"
  bottom: "scaled_flow_gt"
  bottom: "predict_flow_2_3L"
  top: "scaled_flow_gt_2_3L"
  propagate_down: false
  propagate_down: false
}
layer {
  name: "loss_2_3L"
  type: "L1Loss"
  bottom: "predict_flow_2_3L"
  bottom: "scaled_flow_gt_2_3L"
  top: "loss_2_3L"
  loss_weight: 0.02 
  l1_loss_param {
    l2_per_location: true
  }
} 

##### G3_3 #####
layer {
  name: "flow_3_3L"
  type: "Eltwise"
  bottom: "predict_flow_2_3L"
  top: "flow_3_3L"
  eltwise_param {
    operation: SUM
    coeff: 2.5
  }
}
layer {
  name: "warped_3_3L"
  type: "Warp"
  bottom: "conv1_3_b"  
  bottom: "flow_3_3L"  
  top: "warped_3_3L"
}
layer {
  name: "corr_3_3L"
  type: "Correlation"
  bottom: "conv0_3_b" 
  bottom: "warped_3_3L"
  top: "corr_3_3L"
  correlation_param {
    pad: 4
    kernel_size: 1
    max_displacement: 4
    stride_1: 1
    stride_2: 1
  }
}
layer {
  name: "corr_3_3L_relu"
  type: "ReLU"
  bottom: "corr_3_3L"
  top: "corr_3_3L"
  relu_param {
    negative_slope: 0.1
  }
}
layer {
  name: "corr_3_3L_concat"
  type: "Concat"
  bottom: "corr_3_3L"
  bottom: "conv0_3_b"  
  bottom: "predict_flow_2_3L" 
  top: "corr_3_3L_concat"
  concat_param {
    axis: 1
  }
}

layer {
  name: "conv1_3_3L"
  type: "Convolution"
  bottom: "corr_3_3L_concat"
  top: "conv1_3_3L"
  param {
    lr_mult: 1
    decay_mult: 1
  }
  param {
    lr_mult: 1
    decay_mult: 0
  }
  convolution_param {
    num_output: 96
    pad: 1
    kernel_size: 3
    stride: 1
    weight_filler {
      type: "msra"
    }
    bias_filler {
      type: "constant"
    }
    engine: CUDNN
  }
}


layer {
  name: "relu1_3_3L"
  type: "ReLU"
  bottom: "conv1_3_3L"
  top: "conv1_3_3L"
  relu_param{
  	negative_slope: 0.1
  }
}


layer {
  name: "incept_3_3L_1b_1"
  type: "Convolution"
  bottom: "conv1_3_3L"
  top: "incept_3_3L_1b_1"
  param {
    lr_mult: 1
    decay_mult: 1
  }
  param {
    lr_mult: 1
    decay_mult: 0
  }
  convolution_param {
    num_output: 36
    pad: 0
    kernel_size: 1
    stride: 1
    weight_filler {
      type: "msra"
    }
    bias_filler {
      type: "constant"
    }
    engine: CUDNN
  }
}

layer {
  name: "incept_3_3L_1b_relu1"
  type: "ReLU"
  bottom: "incept_3_3L_1b_1"
  top: "incept_3_3L_1b_1"
  relu_param{
  	negative_slope: 0.1
  }
}

layer {
  name: "incept_3_3L_2b_1"
  type: "Convolution"
  bottom: "conv1_3_3L"
  top: "incept_3_3L_2b_1"
  param {
    lr_mult: 1
    decay_mult: 1
  }
  param {
    lr_mult: 1
    decay_mult: 0
  }
  convolution_param {
    num_output: 48
    pad: 0
    kernel_size: 1
    stride: 1
    weight_filler {
      type: "msra"
    }
    bias_filler {
      type: "constant"
    }
    engine: CUDNN
  }
}

layer {
  name: "incept_3_3L_2b_relu1"
  type: "ReLU"
  bottom: "incept_3_3L_2b_1"
  top: "incept_3_3L_2b_1"
  relu_param{
  	negative_slope: 0.1
  }
}


layer {
  name: "incept_3_3L_2b_2"
  type: "Convolution"
  bottom: "incept_3_3L_2b_1"
  top: "incept_3_3L_2b_2"
  param {
    lr_mult: 1
    decay_mult: 1
  }
  param {
    lr_mult: 1
    decay_mult: 0
  }
  convolution_param {
    num_output: 64
    pad: 1
    kernel_size: 3
    stride: 1
    weight_filler {
      type: "msra"
    }
    bias_filler {
      type: "constant"
    }
    engine: CUDNN
  }
}

layer {
  name: "incept_3_3L_2b_relu2"
  type: "ReLU"
  bottom: "incept_3_3L_2b_2"
  top: "incept_3_3L_2b_2"
  relu_param{
  	negative_slope: 0.1
  }
}



layer {
  name: "incept_3_3L_3b_1"
  type: "Convolution"
  bottom: "conv1_3_3L"
  top: "incept_3_3L_3b_1"
  param {
    lr_mult: 1
    decay_mult: 1
  }
  param {
    lr_mult: 1
    decay_mult: 0
  }
  convolution_param {
    num_output: 16
    pad: 0
    kernel_size: 1
    stride: 1
    weight_filler {
      type: "msra"
    }
    bias_filler {
      type: "constant"
    }
    engine: CUDNN
  }
}

layer {
  name: "incept_3_3L_3b_relu1"
  type: "ReLU"
  bottom: "incept_3_3L_3b_1"
  top: "incept_3_3L_3b_1"
  relu_param{
  	negative_slope: 0.1
  }
}


layer {
  name: "incept_3_3L_3b_2"
  type: "Convolution"
  bottom: "incept_3_3L_3b_1"
  top: "incept_3_3L_3b_2"
  param {
    lr_mult: 1
    decay_mult: 1
  }
  param {
    lr_mult: 1
    decay_mult: 0
  }
  convolution_param {
    num_output: 32
    pad: 1
    kernel_size: 3
    stride: 1
    weight_filler {
      type: "msra"
    }
    bias_filler {
      type: "constant"
    }
    engine: CUDNN
  }
}

layer {
  name: "incept_3_3L_3b_relu2"
  type: "ReLU"
  bottom: "incept_3_3L_3b_2"
  top: "incept_3_3L_3b_2"
  relu_param{
  	negative_slope: 0.1
  }
}
layer {
  name: "incept_3_3L_3b_3"
  type: "Convolution"
  bottom: "incept_3_3L_3b_2"
  top: "incept_3_3L_3b_3"
  param {
    lr_mult: 1
    decay_mult: 1
  }
  param {
    lr_mult: 1
    decay_mult: 0
  }
  convolution_param {
    num_output: 48
    pad: 1
    kernel_size: 3
    stride: 1
    weight_filler {
      type: "msra"
    }
    bias_filler {
      type: "constant"
    }
    engine: CUDNN
  }
}

layer {
  name: "incept_3_3L_3b_relu3"
  type: "ReLU"
  bottom: "incept_3_3L_3b_3"
  top: "incept_3_3L_3b_3"
  relu_param{
  	negative_slope: 0.1
  }
}


layer {
  name: "incept_3_3L_4b_1"   
  type: "Pooling" 
  bottom: "conv1_3_3L" 
  top: "incept_3_3L_4b_1" 

  pooling_param {
    pool: MAX  
	pad: 1
    kernel_size: 3  
    stride: 1 
  }
}

layer {
  name: "incept_3_3L_4b_relu1"
  type: "ReLU"
  bottom: "incept_3_3L_4b_1"
  top: "incept_3_3L_4b_1"
  relu_param{
  	negative_slope: 0.1
  }
}

layer {
  name: "incept_3_3L_4b_2"
  type: "Convolution"
  bottom: "incept_3_3L_4b_1"
  top: "incept_3_3L_4b_2"
  param {
    lr_mult: 1
    decay_mult: 1
  }
  param {
    lr_mult: 1
    decay_mult: 0
  }
  convolution_param {
    num_output: 12
    pad: 0
    kernel_size: 1
    stride: 1
    weight_filler {
      type: "msra"
    }
    bias_filler {
      type: "constant"
    }
    engine: CUDNN
  }
}
layer {
  name: "incept_3_3L_4b_relu2"
  type: "ReLU"
  bottom: "incept_3_3L_4b_2"
  top: "incept_3_3L_4b_2"
  relu_param{
  	negative_slope: 0.1
  }
}
layer {
  name: "concat_3_3L"
  type: "Concat"
  bottom: "incept_3_3L_1b_1"
  bottom: "incept_3_3L_2b_2"
  bottom: "incept_3_3L_3b_3"
  bottom: "incept_3_3L_4b_2"
  top: "concat_3_3L"
}



layer {
  name: "conv2_3_3L"
  type: "Convolution"
  bottom: "concat_3_3L"
  top: "conv2_3_3L"
  param {
    lr_mult: 1
    decay_mult: 1
  }
  param {
    lr_mult: 1
    decay_mult: 0
  }
  convolution_param {
    num_output: 64
    pad: 0
    kernel_size: 1
    stride: 1
    weight_filler {
      type: "msra"
    }
    bias_filler {
      type: "constant"
    }
    engine: CUDNN
  }
}
layer {
  name: "relu2_3_3L"
  type: "ReLU"
  bottom: "conv2_3_3L"
  top: "conv2_3_3L"
  relu_param{
  	negative_slope: 0.1
  }
}
########## Dense Connection ###########
layer {
  name: "dense_connection_1_2_3_3L"
  type: "Concat"
  bottom: "conv2_1_3L"
  bottom: "conv2_2_3L"
  bottom: "conv2_3_3L"
  top: "dense_connection_1_2_3_3L"
}
#######################################
layer {
  name: "conv3_3_3L"
  type: "Convolution"
  bottom: "dense_connection_1_2_3_3L"
  top: "conv3_3_3L"
  param {
    lr_mult: 1
    decay_mult: 1
  }
  param {
    lr_mult: 1
    decay_mult: 0
  }
  convolution_param {
    num_output: 64
    pad: 1
    kernel_size: 3
    stride: 1
    weight_filler {
      type: "msra"
    }
    bias_filler {
      type: "constant"
    }
    engine: CUDNN
  }
}
layer {
  name: "relu3_3_3L"
  type: "ReLU"
  bottom: "conv3_3_3L"
  top: "conv3_3_3L"
  relu_param{
  	negative_slope: 0.1
  }
}

layer {
  name: "conv4_3_3L"
  type: "Convolution"
  bottom: "conv3_3_3L"
  top: "conv4_3_3L"
  param {
    lr_mult: 1
    decay_mult: 1
  }
  param {
    lr_mult: 1
    decay_mult: 0
  }
  convolution_param {
    num_output: 64
    pad: 1
    kernel_size: 3
    stride: 1
    weight_filler {
      type: "msra"
    }
    bias_filler {
      type: "constant"
    }
    engine: CUDNN
  }
}
layer {
  name: "relu4_3_3L"
  type: "ReLU"
  bottom: "conv4_3_3L"
  top: "conv4_3_3L"
  relu_param{
  	negative_slope: 0.1
  }
}
layer {
  name: "conv5_3_3L"
  type: "Convolution"
  bottom: "conv4_3_3L"
  top: "conv5_3_3L"
  param {
    lr_mult: 1
    decay_mult: 1
  }
  param {
    lr_mult: 1
    decay_mult: 0
  }
  convolution_param {
    num_output: 64
    pad: 1
    kernel_size: 3
    stride: 1
    weight_filler {
      type: "msra"
    }
    bias_filler {
      type: "constant"
    }
    engine: CUDNN
  }
}
layer {
  name: "relu5_3_3L"
  type: "ReLU"
  bottom: "conv5_3_3L"
  top: "conv5_3_3L"
  relu_param{
  	negative_slope: 0.1
  }
}

layer {
  name: "conv6_3_3L"
  type: "Convolution"
  bottom: "conv5_3_3L"
  top: "conv6_3_3L"
  param {
    lr_mult: 1
    decay_mult: 1
  }
  param {
    lr_mult: 1
    decay_mult: 0
  }
  convolution_param {
    num_output: 32
    pad: 1
    kernel_size: 3
    stride: 1
    weight_filler {
      type: "msra"
    }
    bias_filler {
      type: "constant"
    }
    engine: CUDNN
  }
}
layer {
  name: "relu6_3_3L"
  type: "ReLU"
  bottom: "conv6_3_3L"
  top: "conv6_3_3L"
  relu_param{
  	negative_slope: 0.1
  }
}
layer {
  name: "conv7_3_3L"
  type: "Convolution"
  bottom: "conv6_3_3L"
  top: "conv7_3_3L"
  param {
    lr_mult: 1
    decay_mult: 1
  }
  param {
    lr_mult: 1
    decay_mult: 0
  }
  convolution_param {
    num_output: 16
    pad: 1
    kernel_size: 3
    stride: 1
    weight_filler {
      type: "msra"
    }
    bias_filler {
      type: "constant"
    }
    engine: CUDNN
  }
}
layer {
  name: "relu7_3_3L"
  type: "ReLU"
  bottom: "conv7_3_3L"
  top: "conv7_3_3L"
  relu_param{
  	negative_slope: 0.1
  }
}

layer {
  name: "conv8_3_3L"
  type: "Convolution"
  bottom: "conv7_3_3L"
  top: "conv8_3_3L"
  param {
    lr_mult: 1
    decay_mult: 1
  }
  param {
    lr_mult: 1
    decay_mult: 0
  }
  convolution_param {
    num_output: 8
    pad: 1
    kernel_size: 3
    stride: 1
    weight_filler {
      type: "msra"
    }
    bias_filler {
      type: "constant"
    }
    engine: CUDNN
  }
}
layer {
  name: "relu8_3_3L"
  type: "ReLU"
  bottom: "conv8_3_3L"
  top: "conv8_3_3L"
  relu_param{
  	negative_slope: 0.1
  }
}
layer {
  name: "conv9_3_3L"
  type: "Convolution"
  bottom: "conv8_3_3L"
  top: "predict_res_flow_3_3L"
  param {
    lr_mult: 1
    decay_mult: 1
  }
  param {
    lr_mult: 1
    decay_mult: 0
  }
  convolution_param {
    num_output: 2
    pad: 3
    kernel_size: 7
    stride: 1
    weight_filler {
      type: "msra"
    }
    bias_filler {
      type: "constant"
    }
    engine: CUDNN
  }
}
layer {
	name: "predict_flow_3_3L"
	type: "Eltwise"
	bottom: "predict_flow_2_3L" 
	bottom: "predict_res_flow_3_3L"
	top: "predict_flow_3_3L"
	eltwise_param { operation: SUM }
}
layer {
  name: "scaled_flow_gt_3_3L"
  type: "Downsample"
  bottom: "scaled_flow_gt"
  bottom: "predict_flow_3_3L"
  top: "scaled_flow_gt_3_3L"
  propagate_down: false
  propagate_down: false
}
layer {
  name: "loss_3_3L"
  type: "L1Loss"
  bottom: "predict_flow_3_3L"
  bottom: "scaled_flow_gt_3_3L"
  top: "loss_3_3L"
  loss_weight: 0.02 
  l1_loss_param {
    l2_per_location: true
  }
} 

layer {
  name: "scaled_flow_3Lto4L"
  type: "Deconvolution"
  bottom: "predict_flow_3_3L"
  top: "scaled_flow_3Lto4L"
  param { lr_mult: 0 decay_mult: 0 }
  convolution_param {
    num_output: 2
    group: 2
    pad: 1
    kernel_size: 4
    stride: 2
    weight_filler { type: "bilinear" }
    bias_term: false
    engine: CUDNN
  }
}


##### G4_1 #####
layer {
  name: "flow_1_4L"
  type: "Eltwise"
  bottom: "scaled_flow_3Lto4L"
  top: "flow_1_4L"
  eltwise_param {
    operation: SUM
    coeff: 5
  }
}
layer {
  name: "warped_1_4L"
  type: "Warp"
  bottom: "conv1_2_b" 
  bottom: "flow_1_4L"  
  top: "warped_1_4L"
}
layer {
  name: "corr_1_4L"
  type: "Correlation"
  bottom: "conv0_2_b"  
  bottom: "warped_1_4L"
  top: "corr_1_4L"
  correlation_param {
    pad: 4
    kernel_size: 1
    max_displacement: 4
    stride_1: 1
    stride_2: 1
  }
}
layer {
  name: "corr_1_4L_relu"
  type: "ReLU"
  bottom: "corr_1_4L"
  top: "corr_1_4L"
  relu_param {
    negative_slope: 0.1
  }
}
layer {
  name: "corr_1_4L_concat"
  type: "Concat"
  bottom: "corr_1_4L"
  bottom: "conv0_2_b"  
  bottom: "scaled_flow_3Lto4L" 
  top: "corr_1_4L_concat"
  concat_param {
    axis: 1
  }
}

layer {
  name: "conv1_1_4L"
  type: "Convolution"
  bottom: "corr_1_4L_concat"
  top: "conv1_1_4L"
  param {
    lr_mult: 1
    decay_mult: 1
  }
  param {
    lr_mult: 1
    decay_mult: 0
  }
  convolution_param {
    num_output: 96
    pad: 1
    kernel_size: 3
    stride: 1
    weight_filler {
      type: "msra"
    }
    bias_filler {
      type: "constant"
    }
    engine: CUDNN
  }
}


layer {
  name: "relu1_1_4L"
  type: "ReLU"
  bottom: "conv1_1_4L"
  top: "conv1_1_4L"
  relu_param{
  	negative_slope: 0.1
  }
}


layer {
  name: "incept_1_4L_1b_1"
  type: "Convolution"
  bottom: "conv1_1_4L"
  top: "incept_1_4L_1b_1"
  param {
    lr_mult: 1
    decay_mult: 1
  }
  param {
    lr_mult: 1
    decay_mult: 0
  }
  convolution_param {
    num_output: 36
    pad: 0
    kernel_size: 1
    stride: 1
    weight_filler {
      type: "msra"
    }
    bias_filler {
      type: "constant"
    }
    engine: CUDNN
  }
}

layer {
  name: "incept_1_4L_1b_relu1"
  type: "ReLU"
  bottom: "incept_1_4L_1b_1"
  top: "incept_1_4L_1b_1"
  relu_param{
  	negative_slope: 0.1
  }
}

layer {
  name: "incept_1_4L_2b_1"
  type: "Convolution"
  bottom: "conv1_1_4L"
  top: "incept_1_4L_2b_1"
  param {
    lr_mult: 1
    decay_mult: 1
  }
  param {
    lr_mult: 1
    decay_mult: 0
  }
  convolution_param {
    num_output: 48
    pad: 0
    kernel_size: 1
    stride: 1
    weight_filler {
      type: "msra"
    }
    bias_filler {
      type: "constant"
    }
    engine: CUDNN
  }
}

layer {
  name: "incept_1_4L_2b_relu1"
  type: "ReLU"
  bottom: "incept_1_4L_2b_1"
  top: "incept_1_4L_2b_1"
  relu_param{
  	negative_slope: 0.1
  }
}


layer {
  name: "incept_1_4L_2b_2"
  type: "Convolution"
  bottom: "incept_1_4L_2b_1"
  top: "incept_1_4L_2b_2"
  param {
    lr_mult: 1
    decay_mult: 1
  }
  param {
    lr_mult: 1
    decay_mult: 0
  }
  convolution_param {
    num_output: 64
    pad: 1
    kernel_size: 3
    stride: 1
    weight_filler {
      type: "msra"
    }
    bias_filler {
      type: "constant"
    }
    engine: CUDNN
  }
}

layer {
  name: "incept_1_4L_2b_relu2"
  type: "ReLU"
  bottom: "incept_1_4L_2b_2"
  top: "incept_1_4L_2b_2"
  relu_param{
  	negative_slope: 0.1
  }
}



layer {
  name: "incept_1_4L_3b_1"
  type: "Convolution"
  bottom: "conv1_1_4L"
  top: "incept_1_4L_3b_1"
  param {
    lr_mult: 1
    decay_mult: 1
  }
  param {
    lr_mult: 1
    decay_mult: 0
  }
  convolution_param {
    num_output: 16
    pad: 0
    kernel_size: 1
    stride: 1
    weight_filler {
      type: "msra"
    }
    bias_filler {
      type: "constant"
    }
    engine: CUDNN
  }
}

layer {
  name: "incept_1_4L_3b_relu1"
  type: "ReLU"
  bottom: "incept_1_4L_3b_1"
  top: "incept_1_4L_3b_1"
  relu_param{
  	negative_slope: 0.1
  }
}


layer {
  name: "incept_1_4L_3b_2"
  type: "Convolution"
  bottom: "incept_1_4L_3b_1"
  top: "incept_1_4L_3b_2"
  param {
    lr_mult: 1
    decay_mult: 1
  }
  param {
    lr_mult: 1
    decay_mult: 0
  }
  convolution_param {
    num_output: 32
    pad: 1
    kernel_size: 3
    stride: 1
    weight_filler {
      type: "msra"
    }
    bias_filler {
      type: "constant"
    }
    engine: CUDNN
  }
}

layer {
  name: "incept_1_4L_3b_relu2"
  type: "ReLU"
  bottom: "incept_1_4L_3b_2"
  top: "incept_1_4L_3b_2"
  relu_param{
  	negative_slope: 0.1
  }
}
layer {
  name: "incept_1_4L_3b_3"
  type: "Convolution"
  bottom: "incept_1_4L_3b_2"
  top: "incept_1_4L_3b_3"
  param {
    lr_mult: 1
    decay_mult: 1
  }
  param {
    lr_mult: 1
    decay_mult: 0
  }
  convolution_param {
    num_output: 48
    pad: 1
    kernel_size: 3
    stride: 1
    weight_filler {
      type: "msra"
    }
    bias_filler {
      type: "constant"
    }
    engine: CUDNN
  }
}

layer {
  name: "incept_1_4L_3b_relu3"
  type: "ReLU"
  bottom: "incept_1_4L_3b_3"
  top: "incept_1_4L_3b_3"
  relu_param{
  	negative_slope: 0.1
  }
}


layer {
  name: "incept_1_4L_4b_1"   
  type: "Pooling" 
  bottom: "conv1_1_4L" 
  top: "incept_1_4L_4b_1" 

  pooling_param {
    pool: MAX  
	pad: 1
    kernel_size: 3  
    stride: 1 
  }
}

layer {
  name: "incept_1_4L_4b_relu1"
  type: "ReLU"
  bottom: "incept_1_4L_4b_1"
  top: "incept_1_4L_4b_1"
  relu_param{
  	negative_slope: 0.1
  }
}

layer {
  name: "incept_1_4L_4b_2"
  type: "Convolution"
  bottom: "incept_1_4L_4b_1"
  top: "incept_1_4L_4b_2"
  param {
    lr_mult: 1
    decay_mult: 1
  }
  param {
    lr_mult: 1
    decay_mult: 0
  }
  convolution_param {
    num_output: 12
    pad: 0
    kernel_size: 1
    stride: 1
    weight_filler {
      type: "msra"
    }
    bias_filler {
      type: "constant"
    }
    engine: CUDNN
  }
}
layer {
  name: "incept_1_4L_4b_relu2"
  type: "ReLU"
  bottom: "incept_1_4L_4b_2"
  top: "incept_1_4L_4b_2"
  relu_param{
  	negative_slope: 0.1
  }
}
layer {
  name: "concat_1_4L"
  type: "Concat"
  bottom: "incept_1_4L_1b_1"
  bottom: "incept_1_4L_2b_2"
  bottom: "incept_1_4L_3b_3"
  bottom: "incept_1_4L_4b_2"
  top: "concat_1_4L"
}



layer {
  name: "conv2_1_4L"
  type: "Convolution"
  bottom: "concat_1_4L"
  top: "conv2_1_4L"
  param {
    lr_mult: 1
    decay_mult: 1
  }
  param {
    lr_mult: 1
    decay_mult: 0
  }
  convolution_param {
    num_output: 64
    pad: 0
    kernel_size: 1
    stride: 1
    weight_filler {
      type: "msra"
    }
    bias_filler {
      type: "constant"
    }
    engine: CUDNN
  }
}
layer {
  name: "relu2_1_4L"
  type: "ReLU"
  bottom: "conv2_1_4L"
  top: "conv2_1_4L"
  relu_param{
  	negative_slope: 0.1
  }
}
layer {
  name: "conv3_1_4L"
  type: "Convolution"
  bottom: "conv2_1_4L"
  top: "conv3_1_4L"
  param {
    lr_mult: 1
    decay_mult: 1
  }
  param {
    lr_mult: 1
    decay_mult: 0
  }
  convolution_param {
    num_output: 64
    pad: 1
    kernel_size: 3
    stride: 1
    weight_filler {
      type: "msra"
    }
    bias_filler {
      type: "constant"
    }
    engine: CUDNN
  }
}
layer {
  name: "relu3_1_4L"
  type: "ReLU"
  bottom: "conv3_1_4L"
  top: "conv3_1_4L"
  relu_param{
  	negative_slope: 0.1
  }
}

layer {
  name: "conv4_1_4L"
  type: "Convolution"
  bottom: "conv3_1_4L"
  top: "conv4_1_4L"
  param {
    lr_mult: 1
    decay_mult: 1
  }
  param {
    lr_mult: 1
    decay_mult: 0
  }
  convolution_param {
    num_output: 64
    pad: 1
    kernel_size: 3
    stride: 1
    weight_filler {
      type: "msra"
    }
    bias_filler {
      type: "constant"
    }
    engine: CUDNN
  }
}
layer {
  name: "relu4_1_4L"
  type: "ReLU"
  bottom: "conv4_1_4L"
  top: "conv4_1_4L"
  relu_param{
  	negative_slope: 0.1
  }
}
layer {
  name: "conv5_1_4L"
  type: "Convolution"
  bottom: "conv4_1_4L"
  top: "conv5_1_4L"
  param {
    lr_mult: 1
    decay_mult: 1
  }
  param {
    lr_mult: 1
    decay_mult: 0
  }
  convolution_param {
    num_output: 64
    pad: 1
    kernel_size: 3
    stride: 1
    weight_filler {
      type: "msra"
    }
    bias_filler {
      type: "constant"
    }
    engine: CUDNN
  }
}
layer {
  name: "relu5_1_4L"
  type: "ReLU"
  bottom: "conv5_1_4L"
  top: "conv5_1_4L"
  relu_param{
  	negative_slope: 0.1
  }
}

layer {
  name: "conv6_1_4L"
  type: "Convolution"
  bottom: "conv5_1_4L"
  top: "conv6_1_4L"
  param {
    lr_mult: 1
    decay_mult: 1
  }
  param {
    lr_mult: 1
    decay_mult: 0
  }
  convolution_param {
    num_output: 32
    pad: 1
    kernel_size: 3
    stride: 1
    weight_filler {
      type: "msra"
    }
    bias_filler {
      type: "constant"
    }
    engine: CUDNN
  }
}
layer {
  name: "relu6_1_4L"
  type: "ReLU"
  bottom: "conv6_1_4L"
  top: "conv6_1_4L"
  relu_param{
  	negative_slope: 0.1
  }
}
layer {
  name: "conv7_1_4L"
  type: "Convolution"
  bottom: "conv6_1_4L"
  top: "conv7_1_4L"
  param {
    lr_mult: 1
    decay_mult: 1
  }
  param {
    lr_mult: 1
    decay_mult: 0
  }
  convolution_param {
    num_output: 16
    pad: 1
    kernel_size: 3
    stride: 1
    weight_filler {
      type: "msra"
    }
    bias_filler {
      type: "constant"
    }
    engine: CUDNN
  }
}
layer {
  name: "relu7_1_4L"
  type: "ReLU"
  bottom: "conv7_1_4L"
  top: "conv7_1_4L"
  relu_param{
  	negative_slope: 0.1
  }
}

layer {
  name: "conv8_1_4L"
  type: "Convolution"
  bottom: "conv7_1_4L"
  top: "conv8_1_4L"
  param {
    lr_mult: 1
    decay_mult: 1
  }
  param {
    lr_mult: 1
    decay_mult: 0
  }
  convolution_param {
    num_output: 8
    pad: 1
    kernel_size: 3
    stride: 1
    weight_filler {
      type: "msra"
    }
    bias_filler {
      type: "constant"
    }
    engine: CUDNN
  }
}
layer {
  name: "relu8_1_4L"
  type: "ReLU"
  bottom: "conv8_1_4L"
  top: "conv8_1_4L"
  relu_param{
  	negative_slope: 0.1
  }
}
layer {
  name: "conv9_1_4L"
  type: "Convolution"
  bottom: "conv8_1_4L"
  top: "predict_res_flow_1_4L"
  param {
    lr_mult: 1
    decay_mult: 1
  }
  param {
    lr_mult: 1
    decay_mult: 0
  }
  convolution_param {
    num_output: 2
    pad: 3
    kernel_size: 7
    stride: 1
    weight_filler {
      type: "msra"
    }
    bias_filler {
      type: "constant"
    }
    engine: CUDNN
  }
}
layer {
	name: "predict_flow_1_4L"
	type: "Eltwise"
	bottom: "scaled_flow_3Lto4L"
	bottom: "predict_res_flow_1_4L"
	top: "predict_flow_1_4L"
	eltwise_param { operation: SUM }
}
layer {
  name: "scaled_flow_gt_1_4L"
  type: "Downsample"
  bottom: "scaled_flow_gt"
  bottom: "predict_flow_1_4L"
  top: "scaled_flow_gt_1_4L"
  propagate_down: false
  propagate_down: false
}
layer {
  name: "loss_1_4L"
  type: "L1Loss"
  bottom: "predict_flow_1_4L"
  bottom: "scaled_flow_gt_1_4L"
  top: "loss_1_4L"
  loss_weight: 0.01 
  l1_loss_param {
    l2_per_location: true
  }
} 

##### G4_2 #####
layer {
  name: "flow_2_4L"
  type: "Eltwise"
  bottom: "predict_flow_1_4L"
  top: "flow_2_4L"
  eltwise_param {
    operation: SUM
    coeff: 5
  }
}
layer {
  name: "warped_2_4L"
  type: "Warp"
  bottom: "conv1_2_b"  
  bottom: "flow_2_4L"  
  top: "warped_2_4L"
}
layer {
  name: "corr_2_4L"
  type: "Correlation"
  bottom: "conv0_2_b"  
  bottom: "warped_2_4L"
  top: "corr_2_4L"
  correlation_param {
    pad: 4
    kernel_size: 1
    max_displacement: 4
    stride_1: 1
    stride_2: 1
  }
}
layer {
  name: "corr_2_4L_relu"
  type: "ReLU"
  bottom: "corr_2_4L"
  top: "corr_2_4L"
  relu_param {
    negative_slope: 0.1
  }
}
layer {
  name: "corr_2_4L_concat"
  type: "Concat"
  bottom: "corr_2_4L"
  bottom: "conv0_2_b"  
  bottom: "predict_flow_1_4L" 
  top: "corr_2_4L_concat"
  concat_param {
    axis: 1
  }
}

layer {
  name: "conv1_2_4L"
  type: "Convolution"
  bottom: "corr_2_4L_concat"
  top: "conv1_2_4L"
  param {
    lr_mult: 1
    decay_mult: 1
  }
  param {
    lr_mult: 1
    decay_mult: 0
  }
  convolution_param {
    num_output: 96
    pad: 1
    kernel_size: 3
    stride: 1
    weight_filler {
      type: "msra"
    }
    bias_filler {
      type: "constant"
    }
    engine: CUDNN
  }
}


layer {
  name: "relu1_2_4L"
  type: "ReLU"
  bottom: "conv1_2_4L"
  top: "conv1_2_4L"
  relu_param{
  	negative_slope: 0.1
  }
}


layer {
  name: "incept_2_4L_1b_1"
  type: "Convolution"
  bottom: "conv1_2_4L"
  top: "incept_2_4L_1b_1"
  param {
    lr_mult: 1
    decay_mult: 1
  }
  param {
    lr_mult: 1
    decay_mult: 0
  }
  convolution_param {
    num_output: 36
    pad: 0
    kernel_size: 1
    stride: 1
    weight_filler {
      type: "msra"
    }
    bias_filler {
      type: "constant"
    }
    engine: CUDNN
  }
}

layer {
  name: "incept_2_4L_1b_relu1"
  type: "ReLU"
  bottom: "incept_2_4L_1b_1"
  top: "incept_2_4L_1b_1"
  relu_param{
  	negative_slope: 0.1
  }
}

layer {
  name: "incept_2_4L_2b_1"
  type: "Convolution"
  bottom: "conv1_2_4L"
  top: "incept_2_4L_2b_1"
  param {
    lr_mult: 1
    decay_mult: 1
  }
  param {
    lr_mult: 1
    decay_mult: 0
  }
  convolution_param {
    num_output: 48
    pad: 0
    kernel_size: 1
    stride: 1
    weight_filler {
      type: "msra"
    }
    bias_filler {
      type: "constant"
    }
    engine: CUDNN
  }
}

layer {
  name: "incept_2_4L_2b_relu1"
  type: "ReLU"
  bottom: "incept_2_4L_2b_1"
  top: "incept_2_4L_2b_1"
  relu_param{
  	negative_slope: 0.1
  }
}


layer {
  name: "incept_2_4L_2b_2"
  type: "Convolution"
  bottom: "incept_2_4L_2b_1"
  top: "incept_2_4L_2b_2"
  param {
    lr_mult: 1
    decay_mult: 1
  }
  param {
    lr_mult: 1
    decay_mult: 0
  }
  convolution_param {
    num_output: 64
    pad: 1
    kernel_size: 3
    stride: 1
    weight_filler {
      type: "msra"
    }
    bias_filler {
      type: "constant"
    }
    engine: CUDNN
  }
}

layer {
  name: "incept_2_4L_2b_relu2"
  type: "ReLU"
  bottom: "incept_2_4L_2b_2"
  top: "incept_2_4L_2b_2"
  relu_param{
  	negative_slope: 0.1
  }
}



layer {
  name: "incept_2_4L_3b_1"
  type: "Convolution"
  bottom: "conv1_2_4L"
  top: "incept_2_4L_3b_1"
  param {
    lr_mult: 1
    decay_mult: 1
  }
  param {
    lr_mult: 1
    decay_mult: 0
  }
  convolution_param {
    num_output: 16
    pad: 0
    kernel_size: 1
    stride: 1
    weight_filler {
      type: "msra"
    }
    bias_filler {
      type: "constant"
    }
    engine: CUDNN
  }
}

layer {
  name: "incept_2_4L_3b_relu1"
  type: "ReLU"
  bottom: "incept_2_4L_3b_1"
  top: "incept_2_4L_3b_1"
  relu_param{
  	negative_slope: 0.1
  }
}


layer {
  name: "incept_2_4L_3b_2"
  type: "Convolution"
  bottom: "incept_2_4L_3b_1"
  top: "incept_2_4L_3b_2"
  param {
    lr_mult: 1
    decay_mult: 1
  }
  param {
    lr_mult: 1
    decay_mult: 0
  }
  convolution_param {
    num_output: 32
    pad: 1
    kernel_size: 3
    stride: 1
    weight_filler {
      type: "msra"
    }
    bias_filler {
      type: "constant"
    }
    engine: CUDNN
  }
}

layer {
  name: "incept_2_4L_3b_relu2"
  type: "ReLU"
  bottom: "incept_2_4L_3b_2"
  top: "incept_2_4L_3b_2"
  relu_param{
  	negative_slope: 0.1
  }
}
layer {
  name: "incept_2_4L_3b_3"
  type: "Convolution"
  bottom: "incept_2_4L_3b_2"
  top: "incept_2_4L_3b_3"
  param {
    lr_mult: 1
    decay_mult: 1
  }
  param {
    lr_mult: 1
    decay_mult: 0
  }
  convolution_param {
    num_output: 48
    pad: 1
    kernel_size: 3
    stride: 1
    weight_filler {
      type: "msra"
    }
    bias_filler {
      type: "constant"
    }
    engine: CUDNN
  }
}

layer {
  name: "incept_2_4L_3b_relu3"
  type: "ReLU"
  bottom: "incept_2_4L_3b_3"
  top: "incept_2_4L_3b_3"
  relu_param{
  	negative_slope: 0.1
  }
}


layer {
  name: "incept_2_4L_4b_1"   
  type: "Pooling" 
  bottom: "conv1_2_4L" 
  top: "incept_2_4L_4b_1" 

  pooling_param {
    pool: MAX  
	pad: 1
    kernel_size: 3  
    stride: 1 
  }
}

layer {
  name: "incept_2_4L_4b_relu1"
  type: "ReLU"
  bottom: "incept_2_4L_4b_1"
  top: "incept_2_4L_4b_1"
  relu_param{
  	negative_slope: 0.1
  }
}

layer {
  name: "incept_2_4L_4b_2"
  type: "Convolution"
  bottom: "incept_2_4L_4b_1"
  top: "incept_2_4L_4b_2"
  param {
    lr_mult: 1
    decay_mult: 1
  }
  param {
    lr_mult: 1
    decay_mult: 0
  }
  convolution_param {
    num_output: 12
    pad: 0
    kernel_size: 1
    stride: 1
    weight_filler {
      type: "msra"
    }
    bias_filler {
      type: "constant"
    }
    engine: CUDNN
  }
}
layer {
  name: "incept_2_4L_4b_relu2"
  type: "ReLU"
  bottom: "incept_2_4L_4b_2"
  top: "incept_2_4L_4b_2"
  relu_param{
  	negative_slope: 0.1
  }
}
layer {
  name: "concat_2_4L"
  type: "Concat"
  bottom: "incept_2_4L_1b_1"
  bottom: "incept_2_4L_2b_2"
  bottom: "incept_2_4L_3b_3"
  bottom: "incept_2_4L_4b_2"
  top: "concat_2_4L"
}



layer {
  name: "conv2_2_4L"
  type: "Convolution"
  bottom: "concat_2_4L"
  top: "conv2_2_4L"
  param {
    lr_mult: 1
    decay_mult: 1
  }
  param {
    lr_mult: 1
    decay_mult: 0
  }
  convolution_param {
    num_output: 64
    pad: 0
    kernel_size: 1
    stride: 1
    weight_filler {
      type: "msra"
    }
    bias_filler {
      type: "constant"
    }
    engine: CUDNN
  }
}
layer {
  name: "relu2_2_4L"
  type: "ReLU"
  bottom: "conv2_2_4L"
  top: "conv2_2_4L"
  relu_param{
  	negative_slope: 0.1
  }
}
########## Dense Connection ###########
layer {
  name: "dense_connection_1_2_4L"
  type: "Concat"
  bottom: "conv2_1_4L"
  bottom: "conv2_2_4L"
  top: "dense_connection_1_2_4L"
}
#######################################
layer {
  name: "conv3_2_4L"
  type: "Convolution"
  bottom: "dense_connection_1_2_4L"
  top: "conv3_2_4L"
  param {
    lr_mult: 1
    decay_mult: 1
  }
  param {
    lr_mult: 1
    decay_mult: 0
  }
  convolution_param {
    num_output: 64
    pad: 1
    kernel_size: 3
    stride: 1
    weight_filler {
      type: "msra"
    }
    bias_filler {
      type: "constant"
    }
    engine: CUDNN
  }
}
layer {
  name: "relu3_2_4L"
  type: "ReLU"
  bottom: "conv3_2_4L"
  top: "conv3_2_4L"
  relu_param{
  	negative_slope: 0.1
  }
}

layer {
  name: "conv4_2_4L"
  type: "Convolution"
  bottom: "conv3_2_4L"
  top: "conv4_2_4L"
  param {
    lr_mult: 1
    decay_mult: 1
  }
  param {
    lr_mult: 1
    decay_mult: 0
  }
  convolution_param {
    num_output: 64
    pad: 1
    kernel_size: 3
    stride: 1
    weight_filler {
      type: "msra"
    }
    bias_filler {
      type: "constant"
    }
    engine: CUDNN
  }
}
layer {
  name: "relu4_2_4L"
  type: "ReLU"
  bottom: "conv4_2_4L"
  top: "conv4_2_4L"
  relu_param{
  	negative_slope: 0.1
  }
}
layer {
  name: "conv5_2_4L"
  type: "Convolution"
  bottom: "conv4_2_4L"
  top: "conv5_2_4L"
  param {
    lr_mult: 1
    decay_mult: 1
  }
  param {
    lr_mult: 1
    decay_mult: 0
  }
  convolution_param {
    num_output: 64
    pad: 1
    kernel_size: 3
    stride: 1
    weight_filler {
      type: "msra"
    }
    bias_filler {
      type: "constant"
    }
    engine: CUDNN
  }
}
layer {
  name: "relu5_2_4L"
  type: "ReLU"
  bottom: "conv5_2_4L"
  top: "conv5_2_4L"
  relu_param{
  	negative_slope: 0.1
  }
}

layer {
  name: "conv6_2_4L"
  type: "Convolution"
  bottom: "conv5_2_4L"
  top: "conv6_2_4L"
  param {
    lr_mult: 1
    decay_mult: 1
  }
  param {
    lr_mult: 1
    decay_mult: 0
  }
  convolution_param {
    num_output: 32
    pad: 1
    kernel_size: 3
    stride: 1
    weight_filler {
      type: "msra"
    }
    bias_filler {
      type: "constant"
    }
    engine: CUDNN
  }
}
layer {
  name: "relu6_2_4L"
  type: "ReLU"
  bottom: "conv6_2_4L"
  top: "conv6_2_4L"
  relu_param{
  	negative_slope: 0.1
  }
}
layer {
  name: "conv7_2_4L"
  type: "Convolution"
  bottom: "conv6_2_4L"
  top: "conv7_2_4L"
  param {
    lr_mult: 1
    decay_mult: 1
  }
  param {
    lr_mult: 1
    decay_mult: 0
  }
  convolution_param {
    num_output: 16
    pad: 1
    kernel_size: 3
    stride: 1
    weight_filler {
      type: "msra"
    }
    bias_filler {
      type: "constant"
    }
    engine: CUDNN
  }
}
layer {
  name: "relu7_2_4L"
  type: "ReLU"
  bottom: "conv7_2_4L"
  top: "conv7_2_4L"
  relu_param{
  	negative_slope: 0.1
  }
}

layer {
  name: "conv8_2_4L"
  type: "Convolution"
  bottom: "conv7_2_4L"
  top: "conv8_2_4L"
  param {
    lr_mult: 1
    decay_mult: 1
  }
  param {
    lr_mult: 1
    decay_mult: 0
  }
  convolution_param {
    num_output: 8
    pad: 1
    kernel_size: 3
    stride: 1
    weight_filler {
      type: "msra"
    }
    bias_filler {
      type: "constant"
    }
    engine: CUDNN
  }
}
layer {
  name: "relu8_2_4L"
  type: "ReLU"
  bottom: "conv8_2_4L"
  top: "conv8_2_4L"
  relu_param{
  	negative_slope: 0.1
  }
}
layer {
  name: "conv9_2_4L"
  type: "Convolution"
  bottom: "conv8_2_4L"
  top: "predict_res_flow_2_4L"
  param {
    lr_mult: 1
    decay_mult: 1
  }
  param {
    lr_mult: 1
    decay_mult: 0
  }
  convolution_param {
    num_output: 2
    pad: 3
    kernel_size: 7
    stride: 1
    weight_filler {
      type: "msra"
    }
    bias_filler {
      type: "constant"
    }
    engine: CUDNN
  }
}
layer {
	name: "predict_flow_2_4L"
	type: "Eltwise"
	bottom: "predict_flow_1_4L" 
	bottom: "predict_res_flow_2_4L"
	top: "predict_flow_2_4L"
	eltwise_param { operation: SUM }
}
layer {
  name: "scaled_flow_gt_2_4L"
  type: "Downsample"
  bottom: "scaled_flow_gt"
  bottom: "predict_flow_2_4L"
  top: "scaled_flow_gt_2_4L"
  propagate_down: false
  propagate_down: false
}
layer {
  name: "loss_2_4L"
  type: "L1Loss"
  bottom: "predict_flow_2_4L"
  bottom: "scaled_flow_gt_2_4L"
  top: "loss_2_4L"
  loss_weight: 0.01 
  l1_loss_param {
    l2_per_location: true
  }
} 


layer {
  name: "scaled_flow_4Lto5L"
  type: "Deconvolution"
  bottom: "predict_flow_2_4L"
  top: "scaled_flow_4Lto5L"
  param { lr_mult: 0 decay_mult: 0 }
  convolution_param {
    num_output: 2
    group: 2
    pad: 1
    kernel_size: 4
    stride: 2
    weight_filler { type: "bilinear" }
    bias_term: false
    engine: CUDNN
  }
}


##### G5_1 #####
layer {
  name: "flow_1_5L"
  type: "Eltwise"
  bottom: "scaled_flow_4Lto5L"
  top: "flow_1_5L"
  eltwise_param {
    operation: SUM
    coeff: 10
  }
}
layer {
  name: "warped_1_5L"
  type: "Warp"
  bottom: "conv1_1_b"  
  bottom: "flow_1_5L"  
  top: "warped_1_5L"
}
layer {
  name: "corr_1_5L"
  type: "Correlation"
  bottom: "conv0_1_b"  
  bottom: "warped_1_5L"
  top: "corr_1_5L"
  correlation_param {
    pad: 4
    kernel_size: 1
    max_displacement: 4
    stride_1: 1
    stride_2: 1
  }
}
layer {
  name: "corr_1_5L_relu"
  type: "ReLU"
  bottom: "corr_1_5L"
  top: "corr_1_5L"
  relu_param {
    negative_slope: 0.1
  }
}
layer {
  name: "corr_1_5L_concat"
  type: "Concat"
  bottom: "corr_1_5L"
  bottom: "conv0_1_b"  
  bottom: "scaled_flow_4Lto5L" 
  top: "corr_1_5L_concat"
  concat_param {
    axis: 1
  }
}

layer {
  name: "conv1_1_5L"
  type: "Convolution"
  bottom: "corr_1_5L_concat"
  top: "conv1_1_5L"
  param {
    lr_mult: 1
    decay_mult: 1
  }
  param {
    lr_mult: 1
    decay_mult: 0
  }
  convolution_param {
    num_output: 96
    pad: 1
    kernel_size: 3
    stride: 1
    weight_filler {
      type: "msra"
    }
    bias_filler {
      type: "constant"
    }
    engine: CUDNN
  }
}


layer {
  name: "relu1_1_5L"
  type: "ReLU"
  bottom: "conv1_1_5L"
  top: "conv1_1_5L"
  relu_param{
  	negative_slope: 0.1
  }
}


layer {
  name: "incept_1_5L_1b_1"
  type: "Convolution"
  bottom: "conv1_1_5L"
  top: "incept_1_5L_1b_1"
  param {
    lr_mult: 1
    decay_mult: 1
  }
  param {
    lr_mult: 1
    decay_mult: 0
  }
  convolution_param {
    num_output: 36
    pad: 0
    kernel_size: 1
    stride: 1
    weight_filler {
      type: "msra"
    }
    bias_filler {
      type: "constant"
    }
    engine: CUDNN
  }
}

layer {
  name: "incept_1_5L_1b_relu1"
  type: "ReLU"
  bottom: "incept_1_5L_1b_1"
  top: "incept_1_5L_1b_1"
  relu_param{
  	negative_slope: 0.1
  }
}

layer {
  name: "incept_1_5L_2b_1"
  type: "Convolution"
  bottom: "conv1_1_5L"
  top: "incept_1_5L_2b_1"
  param {
    lr_mult: 1
    decay_mult: 1
  }
  param {
    lr_mult: 1
    decay_mult: 0
  }
  convolution_param {
    num_output: 48
    pad: 0
    kernel_size: 1
    stride: 1
    weight_filler {
      type: "msra"
    }
    bias_filler {
      type: "constant"
    }
    engine: CUDNN
  }
}

layer {
  name: "incept_1_5L_2b_relu1"
  type: "ReLU"
  bottom: "incept_1_5L_2b_1"
  top: "incept_1_5L_2b_1"
  relu_param{
  	negative_slope: 0.1
  }
}


layer {
  name: "incept_1_5L_2b_2"
  type: "Convolution"
  bottom: "incept_1_5L_2b_1"
  top: "incept_1_5L_2b_2"
  param {
    lr_mult: 1
    decay_mult: 1
  }
  param {
    lr_mult: 1
    decay_mult: 0
  }
  convolution_param {
    num_output: 64
    pad: 1
    kernel_size: 3
    stride: 1
    weight_filler {
      type: "msra"
    }
    bias_filler {
      type: "constant"
    }
    engine: CUDNN
  }
}

layer {
  name: "incept_1_5L_2b_relu2"
  type: "ReLU"
  bottom: "incept_1_5L_2b_2"
  top: "incept_1_5L_2b_2"
  relu_param{
  	negative_slope: 0.1
  }
}



layer {
  name: "incept_1_5L_3b_1"
  type: "Convolution"
  bottom: "conv1_1_5L"
  top: "incept_1_5L_3b_1"
  param {
    lr_mult: 1
    decay_mult: 1
  }
  param {
    lr_mult: 1
    decay_mult: 0
  }
  convolution_param {
    num_output: 16
    pad: 0
    kernel_size: 1
    stride: 1
    weight_filler {
      type: "msra"
    }
    bias_filler {
      type: "constant"
    }
    engine: CUDNN
  }
}

layer {
  name: "incept_1_5L_3b_relu1"
  type: "ReLU"
  bottom: "incept_1_5L_3b_1"
  top: "incept_1_5L_3b_1"
  relu_param{
  	negative_slope: 0.1
  }
}


layer {
  name: "incept_1_5L_3b_2"
  type: "Convolution"
  bottom: "incept_1_5L_3b_1"
  top: "incept_1_5L_3b_2"
  param {
    lr_mult: 1
    decay_mult: 1
  }
  param {
    lr_mult: 1
    decay_mult: 0
  }
  convolution_param {
    num_output: 32
    pad: 1
    kernel_size: 3
    stride: 1
    weight_filler {
      type: "msra"
    }
    bias_filler {
      type: "constant"
    }
    engine: CUDNN
  }
}

layer {
  name: "incept_1_5L_3b_relu2"
  type: "ReLU"
  bottom: "incept_1_5L_3b_2"
  top: "incept_1_5L_3b_2"
  relu_param{
  	negative_slope: 0.1
  }
}
layer {
  name: "incept_1_5L_3b_3"
  type: "Convolution"
  bottom: "incept_1_5L_3b_2"
  top: "incept_1_5L_3b_3"
  param {
    lr_mult: 1
    decay_mult: 1
  }
  param {
    lr_mult: 1
    decay_mult: 0
  }
  convolution_param {
    num_output: 48
    pad: 1
    kernel_size: 3
    stride: 1
    weight_filler {
      type: "msra"
    }
    bias_filler {
      type: "constant"
    }
    engine: CUDNN
  }
}

layer {
  name: "incept_1_5L_3b_relu3"
  type: "ReLU"
  bottom: "incept_1_5L_3b_3"
  top: "incept_1_5L_3b_3"
  relu_param{
  	negative_slope: 0.1
  }
}


layer {
  name: "incept_1_5L_4b_1"   
  type: "Pooling" 
  bottom: "conv1_1_5L" 
  top: "incept_1_5L_4b_1" 

  pooling_param {
    pool: MAX  
	pad: 1
    kernel_size: 3  
    stride: 1 
  }
}

layer {
  name: "incept_1_5L_4b_relu1"
  type: "ReLU"
  bottom: "incept_1_5L_4b_1"
  top: "incept_1_5L_4b_1"
  relu_param{
  	negative_slope: 0.1
  }
}

layer {
  name: "incept_1_5L_4b_2"
  type: "Convolution"
  bottom: "incept_1_5L_4b_1"
  top: "incept_1_5L_4b_2"
  param {
    lr_mult: 1
    decay_mult: 1
  }
  param {
    lr_mult: 1
    decay_mult: 0
  }
  convolution_param {
    num_output: 12
    pad: 0
    kernel_size: 1
    stride: 1
    weight_filler {
      type: "msra"
    }
    bias_filler {
      type: "constant"
    }
    engine: CUDNN
  }
}
layer {
  name: "incept_1_5L_4b_relu2"
  type: "ReLU"
  bottom: "incept_1_5L_4b_2"
  top: "incept_1_5L_4b_2"
  relu_param{
  	negative_slope: 0.1
  }
}
layer {
  name: "concat_1_5L"
  type: "Concat"
  bottom: "incept_1_5L_1b_1"
  bottom: "incept_1_5L_2b_2"
  bottom: "incept_1_5L_3b_3"
  bottom: "incept_1_5L_4b_2"
  top: "concat_1_5L"
}



layer {
  name: "conv2_1_5L"
  type: "Convolution"
  bottom: "concat_1_5L"
  top: "conv2_1_5L"
  param {
    lr_mult: 1
    decay_mult: 1
  }
  param {
    lr_mult: 1
    decay_mult: 0
  }
  convolution_param {
    num_output: 64
    pad: 0
    kernel_size: 1
    stride: 1
    weight_filler {
      type: "msra"
    }
    bias_filler {
      type: "constant"
    }
    engine: CUDNN
  }
}
layer {
  name: "relu2_1_5L"
  type: "ReLU"
  bottom: "conv2_1_5L"
  top: "conv2_1_5L"
  relu_param{
  	negative_slope: 0.1
  }
}
layer {
  name: "conv3_1_5L"
  type: "Convolution"
  bottom: "conv2_1_5L"
  top: "conv3_1_5L"
  param {
    lr_mult: 1
    decay_mult: 1
  }
  param {
    lr_mult: 1
    decay_mult: 0
  }
  convolution_param {
    num_output: 64
    pad: 1
    kernel_size: 3
    stride: 1
    weight_filler {
      type: "msra"
    }
    bias_filler {
      type: "constant"
    }
    engine: CUDNN
  }
}
layer {
  name: "relu3_1_5L"
  type: "ReLU"
  bottom: "conv3_1_5L"
  top: "conv3_1_5L"
  relu_param{
  	negative_slope: 0.1
  }
}

layer {
  name: "conv4_1_5L"
  type: "Convolution"
  bottom: "conv3_1_5L"
  top: "conv4_1_5L"
  param {
    lr_mult: 1
    decay_mult: 1
  }
  param {
    lr_mult: 1
    decay_mult: 0
  }
  convolution_param {
    num_output: 64
    pad: 1
    kernel_size: 3
    stride: 1
    weight_filler {
      type: "msra"
    }
    bias_filler {
      type: "constant"
    }
    engine: CUDNN
  }
}
layer {
  name: "relu4_1_5L"
  type: "ReLU"
  bottom: "conv4_1_5L"
  top: "conv4_1_5L"
  relu_param{
  	negative_slope: 0.1
  }
}
layer {
  name: "conv5_1_5L"
  type: "Convolution"
  bottom: "conv4_1_5L"
  top: "conv5_1_5L"
  param {
    lr_mult: 1
    decay_mult: 1
  }
  param {
    lr_mult: 1
    decay_mult: 0
  }
  convolution_param {
    num_output: 64
    pad: 1
    kernel_size: 3
    stride: 1
    weight_filler {
      type: "msra"
    }
    bias_filler {
      type: "constant"
    }
    engine: CUDNN
  }
}
layer {
  name: "relu5_1_5L"
  type: "ReLU"
  bottom: "conv5_1_5L"
  top: "conv5_1_5L"
  relu_param{
  	negative_slope: 0.1
  }
}

layer {
  name: "conv6_1_5L"
  type: "Convolution"
  bottom: "conv5_1_5L"
  top: "conv6_1_5L"
  param {
    lr_mult: 1
    decay_mult: 1
  }
  param {
    lr_mult: 1
    decay_mult: 0
  }
  convolution_param {
    num_output: 32
    pad: 1
    kernel_size: 3
    stride: 1
    weight_filler {
      type: "msra"
    }
    bias_filler {
      type: "constant"
    }
    engine: CUDNN
  }
}
layer {
  name: "relu6_1_5L"
  type: "ReLU"
  bottom: "conv6_1_5L"
  top: "conv6_1_5L"
  relu_param{
  	negative_slope: 0.1
  }
}
layer {
  name: "conv7_1_5L"
  type: "Convolution"
  bottom: "conv6_1_5L"
  top: "conv7_1_5L"
  param {
    lr_mult: 1
    decay_mult: 1
  }
  param {
    lr_mult: 1
    decay_mult: 0
  }
  convolution_param {
    num_output: 16
    pad: 1
    kernel_size: 3
    stride: 1
    weight_filler {
      type: "msra"
    }
    bias_filler {
      type: "constant"
    }
    engine: CUDNN
  }
}
layer {
  name: "relu7_1_5L"
  type: "ReLU"
  bottom: "conv7_1_5L"
  top: "conv7_1_5L"
  relu_param{
  	negative_slope: 0.1
  }
}

layer {
  name: "conv8_1_5L"
  type: "Convolution"
  bottom: "conv7_1_5L"
  top: "conv8_1_5L"
  param {
    lr_mult: 1
    decay_mult: 1
  }
  param {
    lr_mult: 1
    decay_mult: 0
  }
  convolution_param {
    num_output: 8
    pad: 1
    kernel_size: 3
    stride: 1
    weight_filler {
      type: "msra"
    }
    bias_filler {
      type: "constant"
    }
    engine: CUDNN
  }
}
layer {
  name: "relu8_1_5L"
  type: "ReLU"
  bottom: "conv8_1_5L"
  top: "conv8_1_5L"
  relu_param{
  	negative_slope: 0.1
  }
}
layer {
  name: "conv9_1_5L"
  type: "Convolution"
  bottom: "conv8_1_5L"
  top: "predict_res_flow_1_5L"
  param {
    lr_mult: 1
    decay_mult: 1
  }
  param {
    lr_mult: 1
    decay_mult: 0
  }
  convolution_param {
    num_output: 2
    pad: 3
    kernel_size: 7
    stride: 1
    weight_filler {
      type: "msra"
    }
    bias_filler {
      type: "constant"
    }
    engine: CUDNN
  }
}
layer {
	name: "predict_flow_1_5L"
	type: "Eltwise"
	bottom: "scaled_flow_4Lto5L" 
	bottom: "predict_res_flow_1_5L"
	top: "predict_flow_1_5L"
	eltwise_param { operation: SUM }
}
layer {
  name: "scaled_flow_gt_1_5L"
  type: "Downsample"
  bottom: "scaled_flow_gt"
  bottom: "predict_flow_1_5L"
  top: "scaled_flow_gt_1_5L"
  propagate_down: false
  propagate_down: false
}
layer {
  name: "loss_1_5L"
  type: "L1Loss"
  bottom: "predict_flow_1_5L"
  bottom: "scaled_flow_gt_1_5L"
  top: "loss_1_5L"
  loss_weight: 0.005 
  l1_loss_param {
    l2_per_location: true
  }
} 
#
#layer {
#  name: "scaled_flow_5Lto6L"
#  type: "Deconvolution"
#  bottom: "predict_flow_1_5L"
#  top: "scaled_flow_5Lto6L"
#  param { lr_mult: 0 decay_mult: 0 }
#  convolution_param {
#    num_output: 2
#    group: 2
#    pad: 1
#    kernel_size: 4
#    stride: 2
#    weight_filler { type: "bilinear" }
#    bias_term: false
#    engine: CUDNN
#  }
#}

layer {
  name: "Silence0"
  type: "Silence"
  bottom: "img0"
}
layer {
  name: "Silence1"
  type: "Silence"
  bottom: "img1"
}
layer {
  name: "Silence2"
  type: "Silence"
  bottom: "flow_gt"
}
layer {
  name: "Silence3"
  type: "Silence"
  bottom: "aux"
}

